<?xml version="1.0" ?>
<net name="yolov5s_2.0" version="10">
	<layers>
		<layer id="0" name="images" type="Parameter" version="opset1">
			<data element_type="f32" shape="1,3,640,640"/>
			<output>
				<port id="0" precision="FP32">
					<dim>1</dim>
					<dim>3</dim>
					<dim>640</dim>
					<dim>640</dim>
				</port>
			</output>
		</layer>
		<layer id="1" name="Slice_4/Cast_118934_const" type="Const" version="opset1">
			<data element_type="i64" offset="0" shape="4" size="32"/>
			<output>
				<port id="1" precision="I64">
					<dim>4</dim>
				</port>
			</output>
		</layer>
		<layer id="2" name="Slice_4/Cast_218936_const" type="Const" version="opset1">
			<data element_type="i64" offset="32" shape="4" size="32"/>
			<output>
				<port id="1" precision="I64">
					<dim>4</dim>
				</port>
			</output>
		</layer>
		<layer id="3" name="Slice_4/Cast_318938_const" type="Const" version="opset1">
			<data element_type="i64" offset="64" shape="4" size="32"/>
			<output>
				<port id="1" precision="I64">
					<dim>4</dim>
				</port>
			</output>
		</layer>
		<layer id="4" name="Slice_4" type="StridedSlice" version="opset1">
			<data begin_mask="1,1,1,1" ellipsis_mask="0,0,0,0" end_mask="1,1,0,1" new_axis_mask="0,0,0,0" shrink_axis_mask="0,0,0,0"/>
			<input>
				<port id="0">
					<dim>1</dim>
					<dim>3</dim>
					<dim>640</dim>
					<dim>640</dim>
				</port>
				<port id="1">
					<dim>4</dim>
				</port>
				<port id="2">
					<dim>4</dim>
				</port>
				<port id="3">
					<dim>4</dim>
				</port>
			</input>
			<output>
				<port id="4" precision="FP32">
					<dim>1</dim>
					<dim>3</dim>
					<dim>320</dim>
					<dim>640</dim>
				</port>
			</output>
		</layer>
		<layer id="5" name="Slice_9/Cast_118778_const" type="Const" version="opset1">
			<data element_type="i64" offset="0" shape="4" size="32"/>
			<output>
				<port id="1" precision="I64">
					<dim>4</dim>
				</port>
			</output>
		</layer>
		<layer id="6" name="Slice_9/Cast_218780_const" type="Const" version="opset1">
			<data element_type="i64" offset="96" shape="4" size="32"/>
			<output>
				<port id="1" precision="I64">
					<dim>4</dim>
				</port>
			</output>
		</layer>
		<layer id="7" name="Slice_9/Cast_318782_const" type="Const" version="opset1">
			<data element_type="i64" offset="128" shape="4" size="32"/>
			<output>
				<port id="1" precision="I64">
					<dim>4</dim>
				</port>
			</output>
		</layer>
		<layer id="8" name="Slice_9" type="StridedSlice" version="opset1">
			<data begin_mask="1,1,1,1" ellipsis_mask="0,0,0,0" end_mask="1,1,1,0" new_axis_mask="0,0,0,0" shrink_axis_mask="0,0,0,0"/>
			<input>
				<port id="0">
					<dim>1</dim>
					<dim>3</dim>
					<dim>320</dim>
					<dim>640</dim>
				</port>
				<port id="1">
					<dim>4</dim>
				</port>
				<port id="2">
					<dim>4</dim>
				</port>
				<port id="3">
					<dim>4</dim>
				</port>
			</input>
			<output>
				<port id="4" precision="FP32">
					<dim>1</dim>
					<dim>3</dim>
					<dim>320</dim>
					<dim>320</dim>
				</port>
			</output>
		</layer>
		<layer id="9" name="Slice_14/Cast_118888_const" type="Const" version="opset1">
			<data element_type="i64" offset="160" shape="4" size="32"/>
			<output>
				<port id="1" precision="I64">
					<dim>4</dim>
				</port>
			</output>
		</layer>
		<layer id="10" name="Slice_14/Cast_218890_const" type="Const" version="opset1">
			<data element_type="i64" offset="32" shape="4" size="32"/>
			<output>
				<port id="1" precision="I64">
					<dim>4</dim>
				</port>
			</output>
		</layer>
		<layer id="11" name="Slice_14/Cast_318892_const" type="Const" version="opset1">
			<data element_type="i64" offset="64" shape="4" size="32"/>
			<output>
				<port id="1" precision="I64">
					<dim>4</dim>
				</port>
			</output>
		</layer>
		<layer id="12" name="Slice_14" type="StridedSlice" version="opset1">
			<data begin_mask="1,1,0,1" ellipsis_mask="0,0,0,0" end_mask="1,1,0,1" new_axis_mask="0,0,0,0" shrink_axis_mask="0,0,0,0"/>
			<input>
				<port id="0">
					<dim>1</dim>
					<dim>3</dim>
					<dim>640</dim>
					<dim>640</dim>
				</port>
				<port id="1">
					<dim>4</dim>
				</port>
				<port id="2">
					<dim>4</dim>
				</port>
				<port id="3">
					<dim>4</dim>
				</port>
			</input>
			<output>
				<port id="4" precision="FP32">
					<dim>1</dim>
					<dim>3</dim>
					<dim>320</dim>
					<dim>640</dim>
				</port>
			</output>
		</layer>
		<layer id="13" name="Slice_19/Cast_118878_const" type="Const" version="opset1">
			<data element_type="i64" offset="0" shape="4" size="32"/>
			<output>
				<port id="1" precision="I64">
					<dim>4</dim>
				</port>
			</output>
		</layer>
		<layer id="14" name="Slice_19/Cast_218880_const" type="Const" version="opset1">
			<data element_type="i64" offset="96" shape="4" size="32"/>
			<output>
				<port id="1" precision="I64">
					<dim>4</dim>
				</port>
			</output>
		</layer>
		<layer id="15" name="Slice_19/Cast_318882_const" type="Const" version="opset1">
			<data element_type="i64" offset="128" shape="4" size="32"/>
			<output>
				<port id="1" precision="I64">
					<dim>4</dim>
				</port>
			</output>
		</layer>
		<layer id="16" name="Slice_19" type="StridedSlice" version="opset1">
			<data begin_mask="1,1,1,1" ellipsis_mask="0,0,0,0" end_mask="1,1,1,0" new_axis_mask="0,0,0,0" shrink_axis_mask="0,0,0,0"/>
			<input>
				<port id="0">
					<dim>1</dim>
					<dim>3</dim>
					<dim>320</dim>
					<dim>640</dim>
				</port>
				<port id="1">
					<dim>4</dim>
				</port>
				<port id="2">
					<dim>4</dim>
				</port>
				<port id="3">
					<dim>4</dim>
				</port>
			</input>
			<output>
				<port id="4" precision="FP32">
					<dim>1</dim>
					<dim>3</dim>
					<dim>320</dim>
					<dim>320</dim>
				</port>
			</output>
		</layer>
		<layer id="17" name="Slice_24/Cast_118756_const" type="Const" version="opset1">
			<data element_type="i64" offset="0" shape="4" size="32"/>
			<output>
				<port id="1" precision="I64">
					<dim>4</dim>
				</port>
			</output>
		</layer>
		<layer id="18" name="Slice_24/Cast_218758_const" type="Const" version="opset1">
			<data element_type="i64" offset="32" shape="4" size="32"/>
			<output>
				<port id="1" precision="I64">
					<dim>4</dim>
				</port>
			</output>
		</layer>
		<layer id="19" name="Slice_24/Cast_318760_const" type="Const" version="opset1">
			<data element_type="i64" offset="64" shape="4" size="32"/>
			<output>
				<port id="1" precision="I64">
					<dim>4</dim>
				</port>
			</output>
		</layer>
		<layer id="20" name="Slice_24" type="StridedSlice" version="opset1">
			<data begin_mask="1,1,1,1" ellipsis_mask="0,0,0,0" end_mask="1,1,0,1" new_axis_mask="0,0,0,0" shrink_axis_mask="0,0,0,0"/>
			<input>
				<port id="0">
					<dim>1</dim>
					<dim>3</dim>
					<dim>640</dim>
					<dim>640</dim>
				</port>
				<port id="1">
					<dim>4</dim>
				</port>
				<port id="2">
					<dim>4</dim>
				</port>
				<port id="3">
					<dim>4</dim>
				</port>
			</input>
			<output>
				<port id="4" precision="FP32">
					<dim>1</dim>
					<dim>3</dim>
					<dim>320</dim>
					<dim>640</dim>
				</port>
			</output>
		</layer>
		<layer id="21" name="Slice_29/Cast_118906_const" type="Const" version="opset1">
			<data element_type="i64" offset="192" shape="4" size="32"/>
			<output>
				<port id="1" precision="I64">
					<dim>4</dim>
				</port>
			</output>
		</layer>
		<layer id="22" name="Slice_29/Cast_218908_const" type="Const" version="opset1">
			<data element_type="i64" offset="96" shape="4" size="32"/>
			<output>
				<port id="1" precision="I64">
					<dim>4</dim>
				</port>
			</output>
		</layer>
		<layer id="23" name="Slice_29/Cast_318910_const" type="Const" version="opset1">
			<data element_type="i64" offset="128" shape="4" size="32"/>
			<output>
				<port id="1" precision="I64">
					<dim>4</dim>
				</port>
			</output>
		</layer>
		<layer id="24" name="Slice_29" type="StridedSlice" version="opset1">
			<data begin_mask="1,1,1,0" ellipsis_mask="0,0,0,0" end_mask="1,1,1,0" new_axis_mask="0,0,0,0" shrink_axis_mask="0,0,0,0"/>
			<input>
				<port id="0">
					<dim>1</dim>
					<dim>3</dim>
					<dim>320</dim>
					<dim>640</dim>
				</port>
				<port id="1">
					<dim>4</dim>
				</port>
				<port id="2">
					<dim>4</dim>
				</port>
				<port id="3">
					<dim>4</dim>
				</port>
			</input>
			<output>
				<port id="4" precision="FP32">
					<dim>1</dim>
					<dim>3</dim>
					<dim>320</dim>
					<dim>320</dim>
				</port>
			</output>
		</layer>
		<layer id="25" name="Slice_34/Cast_118864_const" type="Const" version="opset1">
			<data element_type="i64" offset="160" shape="4" size="32"/>
			<output>
				<port id="1" precision="I64">
					<dim>4</dim>
				</port>
			</output>
		</layer>
		<layer id="26" name="Slice_34/Cast_218866_const" type="Const" version="opset1">
			<data element_type="i64" offset="32" shape="4" size="32"/>
			<output>
				<port id="1" precision="I64">
					<dim>4</dim>
				</port>
			</output>
		</layer>
		<layer id="27" name="Slice_34/Cast_318868_const" type="Const" version="opset1">
			<data element_type="i64" offset="64" shape="4" size="32"/>
			<output>
				<port id="1" precision="I64">
					<dim>4</dim>
				</port>
			</output>
		</layer>
		<layer id="28" name="Slice_34" type="StridedSlice" version="opset1">
			<data begin_mask="1,1,0,1" ellipsis_mask="0,0,0,0" end_mask="1,1,0,1" new_axis_mask="0,0,0,0" shrink_axis_mask="0,0,0,0"/>
			<input>
				<port id="0">
					<dim>1</dim>
					<dim>3</dim>
					<dim>640</dim>
					<dim>640</dim>
				</port>
				<port id="1">
					<dim>4</dim>
				</port>
				<port id="2">
					<dim>4</dim>
				</port>
				<port id="3">
					<dim>4</dim>
				</port>
			</input>
			<output>
				<port id="4" precision="FP32">
					<dim>1</dim>
					<dim>3</dim>
					<dim>320</dim>
					<dim>640</dim>
				</port>
			</output>
		</layer>
		<layer id="29" name="Slice_39/Cast_118912_const" type="Const" version="opset1">
			<data element_type="i64" offset="192" shape="4" size="32"/>
			<output>
				<port id="1" precision="I64">
					<dim>4</dim>
				</port>
			</output>
		</layer>
		<layer id="30" name="Slice_39/Cast_218914_const" type="Const" version="opset1">
			<data element_type="i64" offset="96" shape="4" size="32"/>
			<output>
				<port id="1" precision="I64">
					<dim>4</dim>
				</port>
			</output>
		</layer>
		<layer id="31" name="Slice_39/Cast_318916_const" type="Const" version="opset1">
			<data element_type="i64" offset="128" shape="4" size="32"/>
			<output>
				<port id="1" precision="I64">
					<dim>4</dim>
				</port>
			</output>
		</layer>
		<layer id="32" name="Slice_39" type="StridedSlice" version="opset1">
			<data begin_mask="1,1,1,0" ellipsis_mask="0,0,0,0" end_mask="1,1,1,0" new_axis_mask="0,0,0,0" shrink_axis_mask="0,0,0,0"/>
			<input>
				<port id="0">
					<dim>1</dim>
					<dim>3</dim>
					<dim>320</dim>
					<dim>640</dim>
				</port>
				<port id="1">
					<dim>4</dim>
				</port>
				<port id="2">
					<dim>4</dim>
				</port>
				<port id="3">
					<dim>4</dim>
				</port>
			</input>
			<output>
				<port id="4" precision="FP32">
					<dim>1</dim>
					<dim>3</dim>
					<dim>320</dim>
					<dim>320</dim>
				</port>
			</output>
		</layer>
		<layer id="33" name="Concat_40" type="Concat" version="opset1">
			<data axis="1"/>
			<input>
				<port id="0">
					<dim>1</dim>
					<dim>3</dim>
					<dim>320</dim>
					<dim>320</dim>
				</port>
				<port id="1">
					<dim>1</dim>
					<dim>3</dim>
					<dim>320</dim>
					<dim>320</dim>
				</port>
				<port id="2">
					<dim>1</dim>
					<dim>3</dim>
					<dim>320</dim>
					<dim>320</dim>
				</port>
				<port id="3">
					<dim>1</dim>
					<dim>3</dim>
					<dim>320</dim>
					<dim>320</dim>
				</port>
			</input>
			<output>
				<port id="4" precision="FP32">
					<dim>1</dim>
					<dim>12</dim>
					<dim>320</dim>
					<dim>320</dim>
				</port>
			</output>
		</layer>
		<layer id="34" name="onnx_initializer_node_model.0.conv.conv.weight/Output_0/Data__const" type="Const" version="opset1">
			<data element_type="f32" offset="224" shape="32,12,3,3" size="13824"/>
			<output>
				<port id="1" precision="FP32">
					<dim>32</dim>
					<dim>12</dim>
					<dim>3</dim>
					<dim>3</dim>
				</port>
			</output>
		</layer>
		<layer id="35" name="Conv_41/WithoutBiases" type="Convolution" version="opset1">
			<data dilations="1,1" output_padding="0,0" pads_begin="1,1" pads_end="1,1" strides="1,1"/>
			<input>
				<port id="0">
					<dim>1</dim>
					<dim>12</dim>
					<dim>320</dim>
					<dim>320</dim>
				</port>
				<port id="1">
					<dim>32</dim>
					<dim>12</dim>
					<dim>3</dim>
					<dim>3</dim>
				</port>
			</input>
			<output>
				<port id="2" precision="FP32">
					<dim>1</dim>
					<dim>32</dim>
					<dim>320</dim>
					<dim>320</dim>
				</port>
			</output>
		</layer>
		<layer id="36" name="Conv_41/Dims5345/copy_const" type="Const" version="opset1">
			<data element_type="f32" offset="14048" shape="1,32,1,1" size="128"/>
			<output>
				<port id="1" precision="FP32">
					<dim>1</dim>
					<dim>32</dim>
					<dim>1</dim>
					<dim>1</dim>
				</port>
			</output>
		</layer>
		<layer id="37" name="Conv_41" type="Add" version="opset1">
			<input>
				<port id="0">
					<dim>1</dim>
					<dim>32</dim>
					<dim>320</dim>
					<dim>320</dim>
				</port>
				<port id="1">
					<dim>1</dim>
					<dim>32</dim>
					<dim>1</dim>
					<dim>1</dim>
				</port>
			</input>
			<output>
				<port id="2" precision="FP32">
					<dim>1</dim>
					<dim>32</dim>
					<dim>320</dim>
					<dim>320</dim>
				</port>
			</output>
		</layer>
		<layer id="38" name="LeakyRelu_4213487/Cast_118856_const" type="Const" version="opset1">
			<data element_type="f32" offset="14176" shape="1" size="4"/>
			<output>
				<port id="1" precision="FP32">
					<dim>1</dim>
				</port>
			</output>
		</layer>
		<layer id="39" name="LeakyRelu_4213487" type="PReLU" version="opset1">
			<input>
				<port id="0">
					<dim>1</dim>
					<dim>32</dim>
					<dim>320</dim>
					<dim>320</dim>
				</port>
				<port id="1">
					<dim>1</dim>
				</port>
			</input>
			<output>
				<port id="2" precision="FP32">
					<dim>1</dim>
					<dim>32</dim>
					<dim>320</dim>
					<dim>320</dim>
				</port>
			</output>
		</layer>
		<layer id="40" name="onnx_initializer_node_model.1.conv.weight/Output_0/Data__const" type="Const" version="opset1">
			<data element_type="f32" offset="14180" shape="64,32,3,3" size="73728"/>
			<output>
				<port id="1" precision="FP32">
					<dim>64</dim>
					<dim>32</dim>
					<dim>3</dim>
					<dim>3</dim>
				</port>
			</output>
		</layer>
		<layer id="41" name="Conv_43/WithoutBiases" type="Convolution" version="opset1">
			<data dilations="1,1" output_padding="0,0" pads_begin="1,1" pads_end="1,1" strides="2,2"/>
			<input>
				<port id="0">
					<dim>1</dim>
					<dim>32</dim>
					<dim>320</dim>
					<dim>320</dim>
				</port>
				<port id="1">
					<dim>64</dim>
					<dim>32</dim>
					<dim>3</dim>
					<dim>3</dim>
				</port>
			</input>
			<output>
				<port id="2" precision="FP32">
					<dim>1</dim>
					<dim>64</dim>
					<dim>160</dim>
					<dim>160</dim>
				</port>
			</output>
		</layer>
		<layer id="42" name="Conv_43/Dims5303/copy_const" type="Const" version="opset1">
			<data element_type="f32" offset="87908" shape="1,64,1,1" size="256"/>
			<output>
				<port id="1" precision="FP32">
					<dim>1</dim>
					<dim>64</dim>
					<dim>1</dim>
					<dim>1</dim>
				</port>
			</output>
		</layer>
		<layer id="43" name="Conv_43" type="Add" version="opset1">
			<input>
				<port id="0">
					<dim>1</dim>
					<dim>64</dim>
					<dim>160</dim>
					<dim>160</dim>
				</port>
				<port id="1">
					<dim>1</dim>
					<dim>64</dim>
					<dim>1</dim>
					<dim>1</dim>
				</port>
			</input>
			<output>
				<port id="2" precision="FP32">
					<dim>1</dim>
					<dim>64</dim>
					<dim>160</dim>
					<dim>160</dim>
				</port>
			</output>
		</layer>
		<layer id="44" name="LeakyRelu_4413643/Cast_118924_const" type="Const" version="opset1">
			<data element_type="f32" offset="14176" shape="1" size="4"/>
			<output>
				<port id="1" precision="FP32">
					<dim>1</dim>
				</port>
			</output>
		</layer>
		<layer id="45" name="LeakyRelu_4413643" type="PReLU" version="opset1">
			<input>
				<port id="0">
					<dim>1</dim>
					<dim>64</dim>
					<dim>160</dim>
					<dim>160</dim>
				</port>
				<port id="1">
					<dim>1</dim>
				</port>
			</input>
			<output>
				<port id="2" precision="FP32">
					<dim>1</dim>
					<dim>64</dim>
					<dim>160</dim>
					<dim>160</dim>
				</port>
			</output>
		</layer>
		<layer id="46" name="onnx_initializer_node_model.2.cv1.conv.weight/Output_0/Data__const" type="Const" version="opset1">
			<data element_type="f32" offset="88164" shape="32,64,1,1" size="8192"/>
			<output>
				<port id="1" precision="FP32">
					<dim>32</dim>
					<dim>64</dim>
					<dim>1</dim>
					<dim>1</dim>
				</port>
			</output>
		</layer>
		<layer id="47" name="Conv_45/WithoutBiases" type="Convolution" version="opset1">
			<data dilations="1,1" output_padding="0,0" pads_begin="0,0" pads_end="0,0" strides="1,1"/>
			<input>
				<port id="0">
					<dim>1</dim>
					<dim>64</dim>
					<dim>160</dim>
					<dim>160</dim>
				</port>
				<port id="1">
					<dim>32</dim>
					<dim>64</dim>
					<dim>1</dim>
					<dim>1</dim>
				</port>
			</input>
			<output>
				<port id="2" precision="FP32">
					<dim>1</dim>
					<dim>32</dim>
					<dim>160</dim>
					<dim>160</dim>
				</port>
			</output>
		</layer>
		<layer id="48" name="Conv_45/Dims5411/copy_const" type="Const" version="opset1">
			<data element_type="f32" offset="96356" shape="1,32,1,1" size="128"/>
			<output>
				<port id="1" precision="FP32">
					<dim>1</dim>
					<dim>32</dim>
					<dim>1</dim>
					<dim>1</dim>
				</port>
			</output>
		</layer>
		<layer id="49" name="Conv_45" type="Add" version="opset1">
			<input>
				<port id="0">
					<dim>1</dim>
					<dim>32</dim>
					<dim>160</dim>
					<dim>160</dim>
				</port>
				<port id="1">
					<dim>1</dim>
					<dim>32</dim>
					<dim>1</dim>
					<dim>1</dim>
				</port>
			</input>
			<output>
				<port id="2" precision="FP32">
					<dim>1</dim>
					<dim>32</dim>
					<dim>160</dim>
					<dim>160</dim>
				</port>
			</output>
		</layer>
		<layer id="50" name="LeakyRelu_4613511/Cast_118770_const" type="Const" version="opset1">
			<data element_type="f32" offset="14176" shape="1" size="4"/>
			<output>
				<port id="1" precision="FP32">
					<dim>1</dim>
				</port>
			</output>
		</layer>
		<layer id="51" name="LeakyRelu_4613511" type="PReLU" version="opset1">
			<input>
				<port id="0">
					<dim>1</dim>
					<dim>32</dim>
					<dim>160</dim>
					<dim>160</dim>
				</port>
				<port id="1">
					<dim>1</dim>
				</port>
			</input>
			<output>
				<port id="2" precision="FP32">
					<dim>1</dim>
					<dim>32</dim>
					<dim>160</dim>
					<dim>160</dim>
				</port>
			</output>
		</layer>
		<layer id="52" name="onnx_initializer_node_model.2.m.0.cv1.conv.weight/Output_0/Data__const" type="Const" version="opset1">
			<data element_type="f32" offset="96484" shape="32,32,1,1" size="4096"/>
			<output>
				<port id="1" precision="FP32">
					<dim>32</dim>
					<dim>32</dim>
					<dim>1</dim>
					<dim>1</dim>
				</port>
			</output>
		</layer>
		<layer id="53" name="Conv_47/WithoutBiases" type="Convolution" version="opset1">
			<data dilations="1,1" output_padding="0,0" pads_begin="0,0" pads_end="0,0" strides="1,1"/>
			<input>
				<port id="0">
					<dim>1</dim>
					<dim>32</dim>
					<dim>160</dim>
					<dim>160</dim>
				</port>
				<port id="1">
					<dim>32</dim>
					<dim>32</dim>
					<dim>1</dim>
					<dim>1</dim>
				</port>
			</input>
			<output>
				<port id="2" precision="FP32">
					<dim>1</dim>
					<dim>32</dim>
					<dim>160</dim>
					<dim>160</dim>
				</port>
			</output>
		</layer>
		<layer id="54" name="Conv_47/Dims5309/copy_const" type="Const" version="opset1">
			<data element_type="f32" offset="100580" shape="1,32,1,1" size="128"/>
			<output>
				<port id="1" precision="FP32">
					<dim>1</dim>
					<dim>32</dim>
					<dim>1</dim>
					<dim>1</dim>
				</port>
			</output>
		</layer>
		<layer id="55" name="Conv_47" type="Add" version="opset1">
			<input>
				<port id="0">
					<dim>1</dim>
					<dim>32</dim>
					<dim>160</dim>
					<dim>160</dim>
				</port>
				<port id="1">
					<dim>1</dim>
					<dim>32</dim>
					<dim>1</dim>
					<dim>1</dim>
				</port>
			</input>
			<output>
				<port id="2" precision="FP32">
					<dim>1</dim>
					<dim>32</dim>
					<dim>160</dim>
					<dim>160</dim>
				</port>
			</output>
		</layer>
		<layer id="56" name="LeakyRelu_4813463/Cast_118808_const" type="Const" version="opset1">
			<data element_type="f32" offset="14176" shape="1" size="4"/>
			<output>
				<port id="1" precision="FP32">
					<dim>1</dim>
				</port>
			</output>
		</layer>
		<layer id="57" name="LeakyRelu_4813463" type="PReLU" version="opset1">
			<input>
				<port id="0">
					<dim>1</dim>
					<dim>32</dim>
					<dim>160</dim>
					<dim>160</dim>
				</port>
				<port id="1">
					<dim>1</dim>
				</port>
			</input>
			<output>
				<port id="2" precision="FP32">
					<dim>1</dim>
					<dim>32</dim>
					<dim>160</dim>
					<dim>160</dim>
				</port>
			</output>
		</layer>
		<layer id="58" name="onnx_initializer_node_model.2.m.0.cv2.conv.weight/Output_0/Data__const" type="Const" version="opset1">
			<data element_type="f32" offset="100708" shape="32,32,3,3" size="36864"/>
			<output>
				<port id="1" precision="FP32">
					<dim>32</dim>
					<dim>32</dim>
					<dim>3</dim>
					<dim>3</dim>
				</port>
			</output>
		</layer>
		<layer id="59" name="Conv_49/WithoutBiases" type="Convolution" version="opset1">
			<data dilations="1,1" output_padding="0,0" pads_begin="1,1" pads_end="1,1" strides="1,1"/>
			<input>
				<port id="0">
					<dim>1</dim>
					<dim>32</dim>
					<dim>160</dim>
					<dim>160</dim>
				</port>
				<port id="1">
					<dim>32</dim>
					<dim>32</dim>
					<dim>3</dim>
					<dim>3</dim>
				</port>
			</input>
			<output>
				<port id="2" precision="FP32">
					<dim>1</dim>
					<dim>32</dim>
					<dim>160</dim>
					<dim>160</dim>
				</port>
			</output>
		</layer>
		<layer id="60" name="Conv_49/Dims5459/copy_const" type="Const" version="opset1">
			<data element_type="f32" offset="137572" shape="1,32,1,1" size="128"/>
			<output>
				<port id="1" precision="FP32">
					<dim>1</dim>
					<dim>32</dim>
					<dim>1</dim>
					<dim>1</dim>
				</port>
			</output>
		</layer>
		<layer id="61" name="Conv_49" type="Add" version="opset1">
			<input>
				<port id="0">
					<dim>1</dim>
					<dim>32</dim>
					<dim>160</dim>
					<dim>160</dim>
				</port>
				<port id="1">
					<dim>1</dim>
					<dim>32</dim>
					<dim>1</dim>
					<dim>1</dim>
				</port>
			</input>
			<output>
				<port id="2" precision="FP32">
					<dim>1</dim>
					<dim>32</dim>
					<dim>160</dim>
					<dim>160</dim>
				</port>
			</output>
		</layer>
		<layer id="62" name="LeakyRelu_5013571/Cast_118818_const" type="Const" version="opset1">
			<data element_type="f32" offset="14176" shape="1" size="4"/>
			<output>
				<port id="1" precision="FP32">
					<dim>1</dim>
				</port>
			</output>
		</layer>
		<layer id="63" name="LeakyRelu_5013571" type="PReLU" version="opset1">
			<input>
				<port id="0">
					<dim>1</dim>
					<dim>32</dim>
					<dim>160</dim>
					<dim>160</dim>
				</port>
				<port id="1">
					<dim>1</dim>
				</port>
			</input>
			<output>
				<port id="2" precision="FP32">
					<dim>1</dim>
					<dim>32</dim>
					<dim>160</dim>
					<dim>160</dim>
				</port>
			</output>
		</layer>
		<layer id="64" name="Add_51" type="Add" version="opset1">
			<input>
				<port id="0">
					<dim>1</dim>
					<dim>32</dim>
					<dim>160</dim>
					<dim>160</dim>
				</port>
				<port id="1">
					<dim>1</dim>
					<dim>32</dim>
					<dim>160</dim>
					<dim>160</dim>
				</port>
			</input>
			<output>
				<port id="2" precision="FP32">
					<dim>1</dim>
					<dim>32</dim>
					<dim>160</dim>
					<dim>160</dim>
				</port>
			</output>
		</layer>
		<layer id="65" name="onnx_initializer_node_model.2.cv3.weight/Output_0/Data__const" type="Const" version="opset1">
			<data element_type="f32" offset="137700" shape="32,32,1,1" size="4096"/>
			<output>
				<port id="1" precision="FP32">
					<dim>32</dim>
					<dim>32</dim>
					<dim>1</dim>
					<dim>1</dim>
				</port>
			</output>
		</layer>
		<layer id="66" name="Conv_52" type="Convolution" version="opset1">
			<data dilations="1,1" output_padding="0,0" pads_begin="0,0" pads_end="0,0" strides="1,1"/>
			<input>
				<port id="0">
					<dim>1</dim>
					<dim>32</dim>
					<dim>160</dim>
					<dim>160</dim>
				</port>
				<port id="1">
					<dim>32</dim>
					<dim>32</dim>
					<dim>1</dim>
					<dim>1</dim>
				</port>
			</input>
			<output>
				<port id="2" precision="FP32">
					<dim>1</dim>
					<dim>32</dim>
					<dim>160</dim>
					<dim>160</dim>
				</port>
			</output>
		</layer>
		<layer id="67" name="onnx_initializer_node_model.2.cv2.weight/Output_0/Data__const" type="Const" version="opset1">
			<data element_type="f32" offset="141796" shape="32,64,1,1" size="8192"/>
			<output>
				<port id="1" precision="FP32">
					<dim>32</dim>
					<dim>64</dim>
					<dim>1</dim>
					<dim>1</dim>
				</port>
			</output>
		</layer>
		<layer id="68" name="Conv_53" type="Convolution" version="opset1">
			<data dilations="1,1" output_padding="0,0" pads_begin="0,0" pads_end="0,0" strides="1,1"/>
			<input>
				<port id="0">
					<dim>1</dim>
					<dim>64</dim>
					<dim>160</dim>
					<dim>160</dim>
				</port>
				<port id="1">
					<dim>32</dim>
					<dim>64</dim>
					<dim>1</dim>
					<dim>1</dim>
				</port>
			</input>
			<output>
				<port id="2" precision="FP32">
					<dim>1</dim>
					<dim>32</dim>
					<dim>160</dim>
					<dim>160</dim>
				</port>
			</output>
		</layer>
		<layer id="69" name="Concat_54" type="Concat" version="opset1">
			<data axis="1"/>
			<input>
				<port id="0">
					<dim>1</dim>
					<dim>32</dim>
					<dim>160</dim>
					<dim>160</dim>
				</port>
				<port id="1">
					<dim>1</dim>
					<dim>32</dim>
					<dim>160</dim>
					<dim>160</dim>
				</port>
			</input>
			<output>
				<port id="2" precision="FP32">
					<dim>1</dim>
					<dim>64</dim>
					<dim>160</dim>
					<dim>160</dim>
				</port>
			</output>
		</layer>
		<layer id="70" name="data_mul_8372/copy_const" type="Const" version="opset1">
			<data element_type="f32" offset="149988" shape="1,64,1,1" size="256"/>
			<output>
				<port id="1" precision="FP32">
					<dim>1</dim>
					<dim>64</dim>
					<dim>1</dim>
					<dim>1</dim>
				</port>
			</output>
		</layer>
		<layer id="71" name="BatchNormalization_55/mean/Fused_Mul_" type="Multiply" version="opset1">
			<input>
				<port id="0">
					<dim>1</dim>
					<dim>64</dim>
					<dim>160</dim>
					<dim>160</dim>
				</port>
				<port id="1">
					<dim>1</dim>
					<dim>64</dim>
					<dim>1</dim>
					<dim>1</dim>
				</port>
			</input>
			<output>
				<port id="2" precision="FP32">
					<dim>1</dim>
					<dim>64</dim>
					<dim>160</dim>
					<dim>160</dim>
				</port>
			</output>
		</layer>
		<layer id="72" name="data_add_8374/copy_const" type="Const" version="opset1">
			<data element_type="f32" offset="150244" shape="1,64,1,1" size="256"/>
			<output>
				<port id="1" precision="FP32">
					<dim>1</dim>
					<dim>64</dim>
					<dim>1</dim>
					<dim>1</dim>
				</port>
			</output>
		</layer>
		<layer id="73" name="BatchNormalization_55/variance/Fused_Add_" type="Add" version="opset1">
			<input>
				<port id="0">
					<dim>1</dim>
					<dim>64</dim>
					<dim>160</dim>
					<dim>160</dim>
				</port>
				<port id="1">
					<dim>1</dim>
					<dim>64</dim>
					<dim>1</dim>
					<dim>1</dim>
				</port>
			</input>
			<output>
				<port id="2" precision="FP32">
					<dim>1</dim>
					<dim>64</dim>
					<dim>160</dim>
					<dim>160</dim>
				</port>
			</output>
		</layer>
		<layer id="74" name="LeakyRelu_5613523/Cast_118832_const" type="Const" version="opset1">
			<data element_type="f32" offset="14176" shape="1" size="4"/>
			<output>
				<port id="1" precision="FP32">
					<dim>1</dim>
				</port>
			</output>
		</layer>
		<layer id="75" name="LeakyRelu_5613523" type="PReLU" version="opset1">
			<input>
				<port id="0">
					<dim>1</dim>
					<dim>64</dim>
					<dim>160</dim>
					<dim>160</dim>
				</port>
				<port id="1">
					<dim>1</dim>
				</port>
			</input>
			<output>
				<port id="2" precision="FP32">
					<dim>1</dim>
					<dim>64</dim>
					<dim>160</dim>
					<dim>160</dim>
				</port>
			</output>
		</layer>
		<layer id="76" name="onnx_initializer_node_model.2.cv4.conv.weight/Output_0/Data__const" type="Const" version="opset1">
			<data element_type="f32" offset="150500" shape="64,64,1,1" size="16384"/>
			<output>
				<port id="1" precision="FP32">
					<dim>64</dim>
					<dim>64</dim>
					<dim>1</dim>
					<dim>1</dim>
				</port>
			</output>
		</layer>
		<layer id="77" name="Conv_57/WithoutBiases" type="Convolution" version="opset1">
			<data dilations="1,1" output_padding="0,0" pads_begin="0,0" pads_end="0,0" strides="1,1"/>
			<input>
				<port id="0">
					<dim>1</dim>
					<dim>64</dim>
					<dim>160</dim>
					<dim>160</dim>
				</port>
				<port id="1">
					<dim>64</dim>
					<dim>64</dim>
					<dim>1</dim>
					<dim>1</dim>
				</port>
			</input>
			<output>
				<port id="2" precision="FP32">
					<dim>1</dim>
					<dim>64</dim>
					<dim>160</dim>
					<dim>160</dim>
				</port>
			</output>
		</layer>
		<layer id="78" name="Conv_57/Dims5333/copy_const" type="Const" version="opset1">
			<data element_type="f32" offset="166884" shape="1,64,1,1" size="256"/>
			<output>
				<port id="1" precision="FP32">
					<dim>1</dim>
					<dim>64</dim>
					<dim>1</dim>
					<dim>1</dim>
				</port>
			</output>
		</layer>
		<layer id="79" name="Conv_57" type="Add" version="opset1">
			<input>
				<port id="0">
					<dim>1</dim>
					<dim>64</dim>
					<dim>160</dim>
					<dim>160</dim>
				</port>
				<port id="1">
					<dim>1</dim>
					<dim>64</dim>
					<dim>1</dim>
					<dim>1</dim>
				</port>
			</input>
			<output>
				<port id="2" precision="FP32">
					<dim>1</dim>
					<dim>64</dim>
					<dim>160</dim>
					<dim>160</dim>
				</port>
			</output>
		</layer>
		<layer id="80" name="LeakyRelu_5813483/Cast_118804_const" type="Const" version="opset1">
			<data element_type="f32" offset="14176" shape="1" size="4"/>
			<output>
				<port id="1" precision="FP32">
					<dim>1</dim>
				</port>
			</output>
		</layer>
		<layer id="81" name="LeakyRelu_5813483" type="PReLU" version="opset1">
			<input>
				<port id="0">
					<dim>1</dim>
					<dim>64</dim>
					<dim>160</dim>
					<dim>160</dim>
				</port>
				<port id="1">
					<dim>1</dim>
				</port>
			</input>
			<output>
				<port id="2" precision="FP32">
					<dim>1</dim>
					<dim>64</dim>
					<dim>160</dim>
					<dim>160</dim>
				</port>
			</output>
		</layer>
		<layer id="82" name="onnx_initializer_node_model.3.conv.weight/Output_0/Data__const" type="Const" version="opset1">
			<data element_type="f32" offset="167140" shape="128,64,3,3" size="294912"/>
			<output>
				<port id="1" precision="FP32">
					<dim>128</dim>
					<dim>64</dim>
					<dim>3</dim>
					<dim>3</dim>
				</port>
			</output>
		</layer>
		<layer id="83" name="Conv_59/WithoutBiases" type="Convolution" version="opset1">
			<data dilations="1,1" output_padding="0,0" pads_begin="1,1" pads_end="1,1" strides="2,2"/>
			<input>
				<port id="0">
					<dim>1</dim>
					<dim>64</dim>
					<dim>160</dim>
					<dim>160</dim>
				</port>
				<port id="1">
					<dim>128</dim>
					<dim>64</dim>
					<dim>3</dim>
					<dim>3</dim>
				</port>
			</input>
			<output>
				<port id="2" precision="FP32">
					<dim>1</dim>
					<dim>128</dim>
					<dim>80</dim>
					<dim>80</dim>
				</port>
			</output>
		</layer>
		<layer id="84" name="Conv_59/Dims5195/copy_const" type="Const" version="opset1">
			<data element_type="f32" offset="462052" shape="1,128,1,1" size="512"/>
			<output>
				<port id="1" precision="FP32">
					<dim>1</dim>
					<dim>128</dim>
					<dim>1</dim>
					<dim>1</dim>
				</port>
			</output>
		</layer>
		<layer id="85" name="Conv_59" type="Add" version="opset1">
			<input>
				<port id="0">
					<dim>1</dim>
					<dim>128</dim>
					<dim>80</dim>
					<dim>80</dim>
				</port>
				<port id="1">
					<dim>1</dim>
					<dim>128</dim>
					<dim>1</dim>
					<dim>1</dim>
				</port>
			</input>
			<output>
				<port id="2" precision="FP32">
					<dim>1</dim>
					<dim>128</dim>
					<dim>80</dim>
					<dim>80</dim>
				</port>
			</output>
		</layer>
		<layer id="86" name="LeakyRelu_6013423/Cast_118964_const" type="Const" version="opset1">
			<data element_type="f32" offset="14176" shape="1" size="4"/>
			<output>
				<port id="1" precision="FP32">
					<dim>1</dim>
				</port>
			</output>
		</layer>
		<layer id="87" name="LeakyRelu_6013423" type="PReLU" version="opset1">
			<input>
				<port id="0">
					<dim>1</dim>
					<dim>128</dim>
					<dim>80</dim>
					<dim>80</dim>
				</port>
				<port id="1">
					<dim>1</dim>
				</port>
			</input>
			<output>
				<port id="2" precision="FP32">
					<dim>1</dim>
					<dim>128</dim>
					<dim>80</dim>
					<dim>80</dim>
				</port>
			</output>
		</layer>
		<layer id="88" name="onnx_initializer_node_model.4.cv1.conv.weight/Output_0/Data__const" type="Const" version="opset1">
			<data element_type="f32" offset="462564" shape="64,128,1,1" size="32768"/>
			<output>
				<port id="1" precision="FP32">
					<dim>64</dim>
					<dim>128</dim>
					<dim>1</dim>
					<dim>1</dim>
				</port>
			</output>
		</layer>
		<layer id="89" name="Conv_61/WithoutBiases" type="Convolution" version="opset1">
			<data dilations="1,1" output_padding="0,0" pads_begin="0,0" pads_end="0,0" strides="1,1"/>
			<input>
				<port id="0">
					<dim>1</dim>
					<dim>128</dim>
					<dim>80</dim>
					<dim>80</dim>
				</port>
				<port id="1">
					<dim>64</dim>
					<dim>128</dim>
					<dim>1</dim>
					<dim>1</dim>
				</port>
			</input>
			<output>
				<port id="2" precision="FP32">
					<dim>1</dim>
					<dim>64</dim>
					<dim>80</dim>
					<dim>80</dim>
				</port>
			</output>
		</layer>
		<layer id="90" name="Conv_61/Dims5165/copy_const" type="Const" version="opset1">
			<data element_type="f32" offset="495332" shape="1,64,1,1" size="256"/>
			<output>
				<port id="1" precision="FP32">
					<dim>1</dim>
					<dim>64</dim>
					<dim>1</dim>
					<dim>1</dim>
				</port>
			</output>
		</layer>
		<layer id="91" name="Conv_61" type="Add" version="opset1">
			<input>
				<port id="0">
					<dim>1</dim>
					<dim>64</dim>
					<dim>80</dim>
					<dim>80</dim>
				</port>
				<port id="1">
					<dim>1</dim>
					<dim>64</dim>
					<dim>1</dim>
					<dim>1</dim>
				</port>
			</input>
			<output>
				<port id="2" precision="FP32">
					<dim>1</dim>
					<dim>64</dim>
					<dim>80</dim>
					<dim>80</dim>
				</port>
			</output>
		</layer>
		<layer id="92" name="LeakyRelu_6213559/Cast_118794_const" type="Const" version="opset1">
			<data element_type="f32" offset="14176" shape="1" size="4"/>
			<output>
				<port id="1" precision="FP32">
					<dim>1</dim>
				</port>
			</output>
		</layer>
		<layer id="93" name="LeakyRelu_6213559" type="PReLU" version="opset1">
			<input>
				<port id="0">
					<dim>1</dim>
					<dim>64</dim>
					<dim>80</dim>
					<dim>80</dim>
				</port>
				<port id="1">
					<dim>1</dim>
				</port>
			</input>
			<output>
				<port id="2" precision="FP32">
					<dim>1</dim>
					<dim>64</dim>
					<dim>80</dim>
					<dim>80</dim>
				</port>
			</output>
		</layer>
		<layer id="94" name="onnx_initializer_node_model.4.m.0.cv1.conv.weight/Output_0/Data__const" type="Const" version="opset1">
			<data element_type="f32" offset="495588" shape="64,64,1,1" size="16384"/>
			<output>
				<port id="1" precision="FP32">
					<dim>64</dim>
					<dim>64</dim>
					<dim>1</dim>
					<dim>1</dim>
				</port>
			</output>
		</layer>
		<layer id="95" name="Conv_63/WithoutBiases" type="Convolution" version="opset1">
			<data dilations="1,1" output_padding="0,0" pads_begin="0,0" pads_end="0,0" strides="1,1"/>
			<input>
				<port id="0">
					<dim>1</dim>
					<dim>64</dim>
					<dim>80</dim>
					<dim>80</dim>
				</port>
				<port id="1">
					<dim>64</dim>
					<dim>64</dim>
					<dim>1</dim>
					<dim>1</dim>
				</port>
			</input>
			<output>
				<port id="2" precision="FP32">
					<dim>1</dim>
					<dim>64</dim>
					<dim>80</dim>
					<dim>80</dim>
				</port>
			</output>
		</layer>
		<layer id="96" name="Conv_63/Dims5339/copy_const" type="Const" version="opset1">
			<data element_type="f32" offset="511972" shape="1,64,1,1" size="256"/>
			<output>
				<port id="1" precision="FP32">
					<dim>1</dim>
					<dim>64</dim>
					<dim>1</dim>
					<dim>1</dim>
				</port>
			</output>
		</layer>
		<layer id="97" name="Conv_63" type="Add" version="opset1">
			<input>
				<port id="0">
					<dim>1</dim>
					<dim>64</dim>
					<dim>80</dim>
					<dim>80</dim>
				</port>
				<port id="1">
					<dim>1</dim>
					<dim>64</dim>
					<dim>1</dim>
					<dim>1</dim>
				</port>
			</input>
			<output>
				<port id="2" precision="FP32">
					<dim>1</dim>
					<dim>64</dim>
					<dim>80</dim>
					<dim>80</dim>
				</port>
			</output>
		</layer>
		<layer id="98" name="LeakyRelu_6413627/Cast_118854_const" type="Const" version="opset1">
			<data element_type="f32" offset="14176" shape="1" size="4"/>
			<output>
				<port id="1" precision="FP32">
					<dim>1</dim>
				</port>
			</output>
		</layer>
		<layer id="99" name="LeakyRelu_6413627" type="PReLU" version="opset1">
			<input>
				<port id="0">
					<dim>1</dim>
					<dim>64</dim>
					<dim>80</dim>
					<dim>80</dim>
				</port>
				<port id="1">
					<dim>1</dim>
				</port>
			</input>
			<output>
				<port id="2" precision="FP32">
					<dim>1</dim>
					<dim>64</dim>
					<dim>80</dim>
					<dim>80</dim>
				</port>
			</output>
		</layer>
		<layer id="100" name="onnx_initializer_node_model.4.m.0.cv2.conv.weight/Output_0/Data__const" type="Const" version="opset1">
			<data element_type="f32" offset="512228" shape="64,64,3,3" size="147456"/>
			<output>
				<port id="1" precision="FP32">
					<dim>64</dim>
					<dim>64</dim>
					<dim>3</dim>
					<dim>3</dim>
				</port>
			</output>
		</layer>
		<layer id="101" name="Conv_65/WithoutBiases" type="Convolution" version="opset1">
			<data dilations="1,1" output_padding="0,0" pads_begin="1,1" pads_end="1,1" strides="1,1"/>
			<input>
				<port id="0">
					<dim>1</dim>
					<dim>64</dim>
					<dim>80</dim>
					<dim>80</dim>
				</port>
				<port id="1">
					<dim>64</dim>
					<dim>64</dim>
					<dim>3</dim>
					<dim>3</dim>
				</port>
			</input>
			<output>
				<port id="2" precision="FP32">
					<dim>1</dim>
					<dim>64</dim>
					<dim>80</dim>
					<dim>80</dim>
				</port>
			</output>
		</layer>
		<layer id="102" name="Conv_65/Dims5429/copy_const" type="Const" version="opset1">
			<data element_type="f32" offset="659684" shape="1,64,1,1" size="256"/>
			<output>
				<port id="1" precision="FP32">
					<dim>1</dim>
					<dim>64</dim>
					<dim>1</dim>
					<dim>1</dim>
				</port>
			</output>
		</layer>
		<layer id="103" name="Conv_65" type="Add" version="opset1">
			<input>
				<port id="0">
					<dim>1</dim>
					<dim>64</dim>
					<dim>80</dim>
					<dim>80</dim>
				</port>
				<port id="1">
					<dim>1</dim>
					<dim>64</dim>
					<dim>1</dim>
					<dim>1</dim>
				</port>
			</input>
			<output>
				<port id="2" precision="FP32">
					<dim>1</dim>
					<dim>64</dim>
					<dim>80</dim>
					<dim>80</dim>
				</port>
			</output>
		</layer>
		<layer id="104" name="LeakyRelu_6613547/Cast_118926_const" type="Const" version="opset1">
			<data element_type="f32" offset="14176" shape="1" size="4"/>
			<output>
				<port id="1" precision="FP32">
					<dim>1</dim>
				</port>
			</output>
		</layer>
		<layer id="105" name="LeakyRelu_6613547" type="PReLU" version="opset1">
			<input>
				<port id="0">
					<dim>1</dim>
					<dim>64</dim>
					<dim>80</dim>
					<dim>80</dim>
				</port>
				<port id="1">
					<dim>1</dim>
				</port>
			</input>
			<output>
				<port id="2" precision="FP32">
					<dim>1</dim>
					<dim>64</dim>
					<dim>80</dim>
					<dim>80</dim>
				</port>
			</output>
		</layer>
		<layer id="106" name="Add_67" type="Add" version="opset1">
			<input>
				<port id="0">
					<dim>1</dim>
					<dim>64</dim>
					<dim>80</dim>
					<dim>80</dim>
				</port>
				<port id="1">
					<dim>1</dim>
					<dim>64</dim>
					<dim>80</dim>
					<dim>80</dim>
				</port>
			</input>
			<output>
				<port id="2" precision="FP32">
					<dim>1</dim>
					<dim>64</dim>
					<dim>80</dim>
					<dim>80</dim>
				</port>
			</output>
		</layer>
		<layer id="107" name="onnx_initializer_node_model.4.m.1.cv1.conv.weight/Output_0/Data__const" type="Const" version="opset1">
			<data element_type="f32" offset="659940" shape="64,64,1,1" size="16384"/>
			<output>
				<port id="1" precision="FP32">
					<dim>64</dim>
					<dim>64</dim>
					<dim>1</dim>
					<dim>1</dim>
				</port>
			</output>
		</layer>
		<layer id="108" name="Conv_68/WithoutBiases" type="Convolution" version="opset1">
			<data dilations="1,1" output_padding="0,0" pads_begin="0,0" pads_end="0,0" strides="1,1"/>
			<input>
				<port id="0">
					<dim>1</dim>
					<dim>64</dim>
					<dim>80</dim>
					<dim>80</dim>
				</port>
				<port id="1">
					<dim>64</dim>
					<dim>64</dim>
					<dim>1</dim>
					<dim>1</dim>
				</port>
			</input>
			<output>
				<port id="2" precision="FP32">
					<dim>1</dim>
					<dim>64</dim>
					<dim>80</dim>
					<dim>80</dim>
				</port>
			</output>
		</layer>
		<layer id="109" name="Conv_68/Dims5327/copy_const" type="Const" version="opset1">
			<data element_type="f32" offset="676324" shape="1,64,1,1" size="256"/>
			<output>
				<port id="1" precision="FP32">
					<dim>1</dim>
					<dim>64</dim>
					<dim>1</dim>
					<dim>1</dim>
				</port>
			</output>
		</layer>
		<layer id="110" name="Conv_68" type="Add" version="opset1">
			<input>
				<port id="0">
					<dim>1</dim>
					<dim>64</dim>
					<dim>80</dim>
					<dim>80</dim>
				</port>
				<port id="1">
					<dim>1</dim>
					<dim>64</dim>
					<dim>1</dim>
					<dim>1</dim>
				</port>
			</input>
			<output>
				<port id="2" precision="FP32">
					<dim>1</dim>
					<dim>64</dim>
					<dim>80</dim>
					<dim>80</dim>
				</port>
			</output>
		</layer>
		<layer id="111" name="LeakyRelu_6913631/Cast_118870_const" type="Const" version="opset1">
			<data element_type="f32" offset="14176" shape="1" size="4"/>
			<output>
				<port id="1" precision="FP32">
					<dim>1</dim>
				</port>
			</output>
		</layer>
		<layer id="112" name="LeakyRelu_6913631" type="PReLU" version="opset1">
			<input>
				<port id="0">
					<dim>1</dim>
					<dim>64</dim>
					<dim>80</dim>
					<dim>80</dim>
				</port>
				<port id="1">
					<dim>1</dim>
				</port>
			</input>
			<output>
				<port id="2" precision="FP32">
					<dim>1</dim>
					<dim>64</dim>
					<dim>80</dim>
					<dim>80</dim>
				</port>
			</output>
		</layer>
		<layer id="113" name="onnx_initializer_node_model.4.m.1.cv2.conv.weight/Output_0/Data__const" type="Const" version="opset1">
			<data element_type="f32" offset="676580" shape="64,64,3,3" size="147456"/>
			<output>
				<port id="1" precision="FP32">
					<dim>64</dim>
					<dim>64</dim>
					<dim>3</dim>
					<dim>3</dim>
				</port>
			</output>
		</layer>
		<layer id="114" name="Conv_70/WithoutBiases" type="Convolution" version="opset1">
			<data dilations="1,1" output_padding="0,0" pads_begin="1,1" pads_end="1,1" strides="1,1"/>
			<input>
				<port id="0">
					<dim>1</dim>
					<dim>64</dim>
					<dim>80</dim>
					<dim>80</dim>
				</port>
				<port id="1">
					<dim>64</dim>
					<dim>64</dim>
					<dim>3</dim>
					<dim>3</dim>
				</port>
			</input>
			<output>
				<port id="2" precision="FP32">
					<dim>1</dim>
					<dim>64</dim>
					<dim>80</dim>
					<dim>80</dim>
				</port>
			</output>
		</layer>
		<layer id="115" name="Conv_70/Dims5321/copy_const" type="Const" version="opset1">
			<data element_type="f32" offset="824036" shape="1,64,1,1" size="256"/>
			<output>
				<port id="1" precision="FP32">
					<dim>1</dim>
					<dim>64</dim>
					<dim>1</dim>
					<dim>1</dim>
				</port>
			</output>
		</layer>
		<layer id="116" name="Conv_70" type="Add" version="opset1">
			<input>
				<port id="0">
					<dim>1</dim>
					<dim>64</dim>
					<dim>80</dim>
					<dim>80</dim>
				</port>
				<port id="1">
					<dim>1</dim>
					<dim>64</dim>
					<dim>1</dim>
					<dim>1</dim>
				</port>
			</input>
			<output>
				<port id="2" precision="FP32">
					<dim>1</dim>
					<dim>64</dim>
					<dim>80</dim>
					<dim>80</dim>
				</port>
			</output>
		</layer>
		<layer id="117" name="LeakyRelu_7113599/Cast_118800_const" type="Const" version="opset1">
			<data element_type="f32" offset="14176" shape="1" size="4"/>
			<output>
				<port id="1" precision="FP32">
					<dim>1</dim>
				</port>
			</output>
		</layer>
		<layer id="118" name="LeakyRelu_7113599" type="PReLU" version="opset1">
			<input>
				<port id="0">
					<dim>1</dim>
					<dim>64</dim>
					<dim>80</dim>
					<dim>80</dim>
				</port>
				<port id="1">
					<dim>1</dim>
				</port>
			</input>
			<output>
				<port id="2" precision="FP32">
					<dim>1</dim>
					<dim>64</dim>
					<dim>80</dim>
					<dim>80</dim>
				</port>
			</output>
		</layer>
		<layer id="119" name="Add_72" type="Add" version="opset1">
			<input>
				<port id="0">
					<dim>1</dim>
					<dim>64</dim>
					<dim>80</dim>
					<dim>80</dim>
				</port>
				<port id="1">
					<dim>1</dim>
					<dim>64</dim>
					<dim>80</dim>
					<dim>80</dim>
				</port>
			</input>
			<output>
				<port id="2" precision="FP32">
					<dim>1</dim>
					<dim>64</dim>
					<dim>80</dim>
					<dim>80</dim>
				</port>
			</output>
		</layer>
		<layer id="120" name="onnx_initializer_node_model.4.m.2.cv1.conv.weight/Output_0/Data__const" type="Const" version="opset1">
			<data element_type="f32" offset="824292" shape="64,64,1,1" size="16384"/>
			<output>
				<port id="1" precision="FP32">
					<dim>64</dim>
					<dim>64</dim>
					<dim>1</dim>
					<dim>1</dim>
				</port>
			</output>
		</layer>
		<layer id="121" name="Conv_73/WithoutBiases" type="Convolution" version="opset1">
			<data dilations="1,1" output_padding="0,0" pads_begin="0,0" pads_end="0,0" strides="1,1"/>
			<input>
				<port id="0">
					<dim>1</dim>
					<dim>64</dim>
					<dim>80</dim>
					<dim>80</dim>
				</port>
				<port id="1">
					<dim>64</dim>
					<dim>64</dim>
					<dim>1</dim>
					<dim>1</dim>
				</port>
			</input>
			<output>
				<port id="2" precision="FP32">
					<dim>1</dim>
					<dim>64</dim>
					<dim>80</dim>
					<dim>80</dim>
				</port>
			</output>
		</layer>
		<layer id="122" name="Conv_73/Dims5381/copy_const" type="Const" version="opset1">
			<data element_type="f32" offset="840676" shape="1,64,1,1" size="256"/>
			<output>
				<port id="1" precision="FP32">
					<dim>1</dim>
					<dim>64</dim>
					<dim>1</dim>
					<dim>1</dim>
				</port>
			</output>
		</layer>
		<layer id="123" name="Conv_73" type="Add" version="opset1">
			<input>
				<port id="0">
					<dim>1</dim>
					<dim>64</dim>
					<dim>80</dim>
					<dim>80</dim>
				</port>
				<port id="1">
					<dim>1</dim>
					<dim>64</dim>
					<dim>1</dim>
					<dim>1</dim>
				</port>
			</input>
			<output>
				<port id="2" precision="FP32">
					<dim>1</dim>
					<dim>64</dim>
					<dim>80</dim>
					<dim>80</dim>
				</port>
			</output>
		</layer>
		<layer id="124" name="LeakyRelu_7413443/Cast_118830_const" type="Const" version="opset1">
			<data element_type="f32" offset="14176" shape="1" size="4"/>
			<output>
				<port id="1" precision="FP32">
					<dim>1</dim>
				</port>
			</output>
		</layer>
		<layer id="125" name="LeakyRelu_7413443" type="PReLU" version="opset1">
			<input>
				<port id="0">
					<dim>1</dim>
					<dim>64</dim>
					<dim>80</dim>
					<dim>80</dim>
				</port>
				<port id="1">
					<dim>1</dim>
				</port>
			</input>
			<output>
				<port id="2" precision="FP32">
					<dim>1</dim>
					<dim>64</dim>
					<dim>80</dim>
					<dim>80</dim>
				</port>
			</output>
		</layer>
		<layer id="126" name="onnx_initializer_node_model.4.m.2.cv2.conv.weight/Output_0/Data__const" type="Const" version="opset1">
			<data element_type="f32" offset="840932" shape="64,64,3,3" size="147456"/>
			<output>
				<port id="1" precision="FP32">
					<dim>64</dim>
					<dim>64</dim>
					<dim>3</dim>
					<dim>3</dim>
				</port>
			</output>
		</layer>
		<layer id="127" name="Conv_75/WithoutBiases" type="Convolution" version="opset1">
			<data dilations="1,1" output_padding="0,0" pads_begin="1,1" pads_end="1,1" strides="1,1"/>
			<input>
				<port id="0">
					<dim>1</dim>
					<dim>64</dim>
					<dim>80</dim>
					<dim>80</dim>
				</port>
				<port id="1">
					<dim>64</dim>
					<dim>64</dim>
					<dim>3</dim>
					<dim>3</dim>
				</port>
			</input>
			<output>
				<port id="2" precision="FP32">
					<dim>1</dim>
					<dim>64</dim>
					<dim>80</dim>
					<dim>80</dim>
				</port>
			</output>
		</layer>
		<layer id="128" name="Conv_75/Dims5315/copy_const" type="Const" version="opset1">
			<data element_type="f32" offset="988388" shape="1,64,1,1" size="256"/>
			<output>
				<port id="1" precision="FP32">
					<dim>1</dim>
					<dim>64</dim>
					<dim>1</dim>
					<dim>1</dim>
				</port>
			</output>
		</layer>
		<layer id="129" name="Conv_75" type="Add" version="opset1">
			<input>
				<port id="0">
					<dim>1</dim>
					<dim>64</dim>
					<dim>80</dim>
					<dim>80</dim>
				</port>
				<port id="1">
					<dim>1</dim>
					<dim>64</dim>
					<dim>1</dim>
					<dim>1</dim>
				</port>
			</input>
			<output>
				<port id="2" precision="FP32">
					<dim>1</dim>
					<dim>64</dim>
					<dim>80</dim>
					<dim>80</dim>
				</port>
			</output>
		</layer>
		<layer id="130" name="LeakyRelu_7613575/Cast_118834_const" type="Const" version="opset1">
			<data element_type="f32" offset="14176" shape="1" size="4"/>
			<output>
				<port id="1" precision="FP32">
					<dim>1</dim>
				</port>
			</output>
		</layer>
		<layer id="131" name="LeakyRelu_7613575" type="PReLU" version="opset1">
			<input>
				<port id="0">
					<dim>1</dim>
					<dim>64</dim>
					<dim>80</dim>
					<dim>80</dim>
				</port>
				<port id="1">
					<dim>1</dim>
				</port>
			</input>
			<output>
				<port id="2" precision="FP32">
					<dim>1</dim>
					<dim>64</dim>
					<dim>80</dim>
					<dim>80</dim>
				</port>
			</output>
		</layer>
		<layer id="132" name="Add_77" type="Add" version="opset1">
			<input>
				<port id="0">
					<dim>1</dim>
					<dim>64</dim>
					<dim>80</dim>
					<dim>80</dim>
				</port>
				<port id="1">
					<dim>1</dim>
					<dim>64</dim>
					<dim>80</dim>
					<dim>80</dim>
				</port>
			</input>
			<output>
				<port id="2" precision="FP32">
					<dim>1</dim>
					<dim>64</dim>
					<dim>80</dim>
					<dim>80</dim>
				</port>
			</output>
		</layer>
		<layer id="133" name="onnx_initializer_node_model.4.cv3.weight/Output_0/Data__const" type="Const" version="opset1">
			<data element_type="f32" offset="988644" shape="64,64,1,1" size="16384"/>
			<output>
				<port id="1" precision="FP32">
					<dim>64</dim>
					<dim>64</dim>
					<dim>1</dim>
					<dim>1</dim>
				</port>
			</output>
		</layer>
		<layer id="134" name="Conv_78" type="Convolution" version="opset1">
			<data dilations="1,1" output_padding="0,0" pads_begin="0,0" pads_end="0,0" strides="1,1"/>
			<input>
				<port id="0">
					<dim>1</dim>
					<dim>64</dim>
					<dim>80</dim>
					<dim>80</dim>
				</port>
				<port id="1">
					<dim>64</dim>
					<dim>64</dim>
					<dim>1</dim>
					<dim>1</dim>
				</port>
			</input>
			<output>
				<port id="2" precision="FP32">
					<dim>1</dim>
					<dim>64</dim>
					<dim>80</dim>
					<dim>80</dim>
				</port>
			</output>
		</layer>
		<layer id="135" name="onnx_initializer_node_model.4.cv2.weight/Output_0/Data__const" type="Const" version="opset1">
			<data element_type="f32" offset="1005028" shape="64,128,1,1" size="32768"/>
			<output>
				<port id="1" precision="FP32">
					<dim>64</dim>
					<dim>128</dim>
					<dim>1</dim>
					<dim>1</dim>
				</port>
			</output>
		</layer>
		<layer id="136" name="Conv_79" type="Convolution" version="opset1">
			<data dilations="1,1" output_padding="0,0" pads_begin="0,0" pads_end="0,0" strides="1,1"/>
			<input>
				<port id="0">
					<dim>1</dim>
					<dim>128</dim>
					<dim>80</dim>
					<dim>80</dim>
				</port>
				<port id="1">
					<dim>64</dim>
					<dim>128</dim>
					<dim>1</dim>
					<dim>1</dim>
				</port>
			</input>
			<output>
				<port id="2" precision="FP32">
					<dim>1</dim>
					<dim>64</dim>
					<dim>80</dim>
					<dim>80</dim>
				</port>
			</output>
		</layer>
		<layer id="137" name="Concat_80" type="Concat" version="opset1">
			<data axis="1"/>
			<input>
				<port id="0">
					<dim>1</dim>
					<dim>64</dim>
					<dim>80</dim>
					<dim>80</dim>
				</port>
				<port id="1">
					<dim>1</dim>
					<dim>64</dim>
					<dim>80</dim>
					<dim>80</dim>
				</port>
			</input>
			<output>
				<port id="2" precision="FP32">
					<dim>1</dim>
					<dim>128</dim>
					<dim>80</dim>
					<dim>80</dim>
				</port>
			</output>
		</layer>
		<layer id="138" name="data_mul_83768380/copy_const" type="Const" version="opset1">
			<data element_type="f32" offset="1037796" shape="1,128,1,1" size="512"/>
			<output>
				<port id="1" precision="FP32">
					<dim>1</dim>
					<dim>128</dim>
					<dim>1</dim>
					<dim>1</dim>
				</port>
			</output>
		</layer>
		<layer id="139" name="BatchNormalization_81/mean/Fused_Mul_" type="Multiply" version="opset1">
			<input>
				<port id="0">
					<dim>1</dim>
					<dim>128</dim>
					<dim>80</dim>
					<dim>80</dim>
				</port>
				<port id="1">
					<dim>1</dim>
					<dim>128</dim>
					<dim>1</dim>
					<dim>1</dim>
				</port>
			</input>
			<output>
				<port id="2" precision="FP32">
					<dim>1</dim>
					<dim>128</dim>
					<dim>80</dim>
					<dim>80</dim>
				</port>
			</output>
		</layer>
		<layer id="140" name="data_add_83778382/copy_const" type="Const" version="opset1">
			<data element_type="f32" offset="1038308" shape="1,128,1,1" size="512"/>
			<output>
				<port id="1" precision="FP32">
					<dim>1</dim>
					<dim>128</dim>
					<dim>1</dim>
					<dim>1</dim>
				</port>
			</output>
		</layer>
		<layer id="141" name="BatchNormalization_81/variance/Fused_Add_" type="Add" version="opset1">
			<input>
				<port id="0">
					<dim>1</dim>
					<dim>128</dim>
					<dim>80</dim>
					<dim>80</dim>
				</port>
				<port id="1">
					<dim>1</dim>
					<dim>128</dim>
					<dim>1</dim>
					<dim>1</dim>
				</port>
			</input>
			<output>
				<port id="2" precision="FP32">
					<dim>1</dim>
					<dim>128</dim>
					<dim>80</dim>
					<dim>80</dim>
				</port>
			</output>
		</layer>
		<layer id="142" name="LeakyRelu_8213499/Cast_118846_const" type="Const" version="opset1">
			<data element_type="f32" offset="14176" shape="1" size="4"/>
			<output>
				<port id="1" precision="FP32">
					<dim>1</dim>
				</port>
			</output>
		</layer>
		<layer id="143" name="LeakyRelu_8213499" type="PReLU" version="opset1">
			<input>
				<port id="0">
					<dim>1</dim>
					<dim>128</dim>
					<dim>80</dim>
					<dim>80</dim>
				</port>
				<port id="1">
					<dim>1</dim>
				</port>
			</input>
			<output>
				<port id="2" precision="FP32">
					<dim>1</dim>
					<dim>128</dim>
					<dim>80</dim>
					<dim>80</dim>
				</port>
			</output>
		</layer>
		<layer id="144" name="onnx_initializer_node_model.4.cv4.conv.weight/Output_0/Data__const" type="Const" version="opset1">
			<data element_type="f32" offset="1038820" shape="128,128,1,1" size="65536"/>
			<output>
				<port id="1" precision="FP32">
					<dim>128</dim>
					<dim>128</dim>
					<dim>1</dim>
					<dim>1</dim>
				</port>
			</output>
		</layer>
		<layer id="145" name="Conv_83/WithoutBiases" type="Convolution" version="opset1">
			<data dilations="1,1" output_padding="0,0" pads_begin="0,0" pads_end="0,0" strides="1,1"/>
			<input>
				<port id="0">
					<dim>1</dim>
					<dim>128</dim>
					<dim>80</dim>
					<dim>80</dim>
				</port>
				<port id="1">
					<dim>128</dim>
					<dim>128</dim>
					<dim>1</dim>
					<dim>1</dim>
				</port>
			</input>
			<output>
				<port id="2" precision="FP32">
					<dim>1</dim>
					<dim>128</dim>
					<dim>80</dim>
					<dim>80</dim>
				</port>
			</output>
		</layer>
		<layer id="146" name="Conv_83/Dims5267/copy_const" type="Const" version="opset1">
			<data element_type="f32" offset="1104356" shape="1,128,1,1" size="512"/>
			<output>
				<port id="1" precision="FP32">
					<dim>1</dim>
					<dim>128</dim>
					<dim>1</dim>
					<dim>1</dim>
				</port>
			</output>
		</layer>
		<layer id="147" name="Conv_83" type="Add" version="opset1">
			<input>
				<port id="0">
					<dim>1</dim>
					<dim>128</dim>
					<dim>80</dim>
					<dim>80</dim>
				</port>
				<port id="1">
					<dim>1</dim>
					<dim>128</dim>
					<dim>1</dim>
					<dim>1</dim>
				</port>
			</input>
			<output>
				<port id="2" precision="FP32">
					<dim>1</dim>
					<dim>128</dim>
					<dim>80</dim>
					<dim>80</dim>
				</port>
			</output>
		</layer>
		<layer id="148" name="LeakyRelu_8413543/Cast_118956_const" type="Const" version="opset1">
			<data element_type="f32" offset="14176" shape="1" size="4"/>
			<output>
				<port id="1" precision="FP32">
					<dim>1</dim>
				</port>
			</output>
		</layer>
		<layer id="149" name="LeakyRelu_8413543" type="PReLU" version="opset1">
			<input>
				<port id="0">
					<dim>1</dim>
					<dim>128</dim>
					<dim>80</dim>
					<dim>80</dim>
				</port>
				<port id="1">
					<dim>1</dim>
				</port>
			</input>
			<output>
				<port id="2" precision="FP32">
					<dim>1</dim>
					<dim>128</dim>
					<dim>80</dim>
					<dim>80</dim>
				</port>
			</output>
		</layer>
		<layer id="150" name="onnx_initializer_node_model.5.conv.weight/Output_0/Data__const" type="Const" version="opset1">
			<data element_type="f32" offset="1104868" shape="256,128,3,3" size="1179648"/>
			<output>
				<port id="1" precision="FP32">
					<dim>256</dim>
					<dim>128</dim>
					<dim>3</dim>
					<dim>3</dim>
				</port>
			</output>
		</layer>
		<layer id="151" name="Conv_85/WithoutBiases" type="Convolution" version="opset1">
			<data dilations="1,1" output_padding="0,0" pads_begin="1,1" pads_end="1,1" strides="2,2"/>
			<input>
				<port id="0">
					<dim>1</dim>
					<dim>128</dim>
					<dim>80</dim>
					<dim>80</dim>
				</port>
				<port id="1">
					<dim>256</dim>
					<dim>128</dim>
					<dim>3</dim>
					<dim>3</dim>
				</port>
			</input>
			<output>
				<port id="2" precision="FP32">
					<dim>1</dim>
					<dim>256</dim>
					<dim>40</dim>
					<dim>40</dim>
				</port>
			</output>
		</layer>
		<layer id="152" name="Conv_85/Dims5219/copy_const" type="Const" version="opset1">
			<data element_type="f32" offset="2284516" shape="1,256,1,1" size="1024"/>
			<output>
				<port id="1" precision="FP32">
					<dim>1</dim>
					<dim>256</dim>
					<dim>1</dim>
					<dim>1</dim>
				</port>
			</output>
		</layer>
		<layer id="153" name="Conv_85" type="Add" version="opset1">
			<input>
				<port id="0">
					<dim>1</dim>
					<dim>256</dim>
					<dim>40</dim>
					<dim>40</dim>
				</port>
				<port id="1">
					<dim>1</dim>
					<dim>256</dim>
					<dim>1</dim>
					<dim>1</dim>
				</port>
			</input>
			<output>
				<port id="2" precision="FP32">
					<dim>1</dim>
					<dim>256</dim>
					<dim>40</dim>
					<dim>40</dim>
				</port>
			</output>
		</layer>
		<layer id="154" name="LeakyRelu_8613503/Cast_118876_const" type="Const" version="opset1">
			<data element_type="f32" offset="14176" shape="1" size="4"/>
			<output>
				<port id="1" precision="FP32">
					<dim>1</dim>
				</port>
			</output>
		</layer>
		<layer id="155" name="LeakyRelu_8613503" type="PReLU" version="opset1">
			<input>
				<port id="0">
					<dim>1</dim>
					<dim>256</dim>
					<dim>40</dim>
					<dim>40</dim>
				</port>
				<port id="1">
					<dim>1</dim>
				</port>
			</input>
			<output>
				<port id="2" precision="FP32">
					<dim>1</dim>
					<dim>256</dim>
					<dim>40</dim>
					<dim>40</dim>
				</port>
			</output>
		</layer>
		<layer id="156" name="onnx_initializer_node_model.6.cv1.conv.weight/Output_0/Data__const" type="Const" version="opset1">
			<data element_type="f32" offset="2285540" shape="128,256,1,1" size="131072"/>
			<output>
				<port id="1" precision="FP32">
					<dim>128</dim>
					<dim>256</dim>
					<dim>1</dim>
					<dim>1</dim>
				</port>
			</output>
		</layer>
		<layer id="157" name="Conv_87/WithoutBiases" type="Convolution" version="opset1">
			<data dilations="1,1" output_padding="0,0" pads_begin="0,0" pads_end="0,0" strides="1,1"/>
			<input>
				<port id="0">
					<dim>1</dim>
					<dim>256</dim>
					<dim>40</dim>
					<dim>40</dim>
				</port>
				<port id="1">
					<dim>128</dim>
					<dim>256</dim>
					<dim>1</dim>
					<dim>1</dim>
				</port>
			</input>
			<output>
				<port id="2" precision="FP32">
					<dim>1</dim>
					<dim>128</dim>
					<dim>40</dim>
					<dim>40</dim>
				</port>
			</output>
		</layer>
		<layer id="158" name="Conv_87/Dims5447/copy_const" type="Const" version="opset1">
			<data element_type="f32" offset="2416612" shape="1,128,1,1" size="512"/>
			<output>
				<port id="1" precision="FP32">
					<dim>1</dim>
					<dim>128</dim>
					<dim>1</dim>
					<dim>1</dim>
				</port>
			</output>
		</layer>
		<layer id="159" name="Conv_87" type="Add" version="opset1">
			<input>
				<port id="0">
					<dim>1</dim>
					<dim>128</dim>
					<dim>40</dim>
					<dim>40</dim>
				</port>
				<port id="1">
					<dim>1</dim>
					<dim>128</dim>
					<dim>1</dim>
					<dim>1</dim>
				</port>
			</input>
			<output>
				<port id="2" precision="FP32">
					<dim>1</dim>
					<dim>128</dim>
					<dim>40</dim>
					<dim>40</dim>
				</port>
			</output>
		</layer>
		<layer id="160" name="LeakyRelu_8813527/Cast_118820_const" type="Const" version="opset1">
			<data element_type="f32" offset="14176" shape="1" size="4"/>
			<output>
				<port id="1" precision="FP32">
					<dim>1</dim>
				</port>
			</output>
		</layer>
		<layer id="161" name="LeakyRelu_8813527" type="PReLU" version="opset1">
			<input>
				<port id="0">
					<dim>1</dim>
					<dim>128</dim>
					<dim>40</dim>
					<dim>40</dim>
				</port>
				<port id="1">
					<dim>1</dim>
				</port>
			</input>
			<output>
				<port id="2" precision="FP32">
					<dim>1</dim>
					<dim>128</dim>
					<dim>40</dim>
					<dim>40</dim>
				</port>
			</output>
		</layer>
		<layer id="162" name="onnx_initializer_node_model.6.m.0.cv1.conv.weight/Output_0/Data__const" type="Const" version="opset1">
			<data element_type="f32" offset="2417124" shape="128,128,1,1" size="65536"/>
			<output>
				<port id="1" precision="FP32">
					<dim>128</dim>
					<dim>128</dim>
					<dim>1</dim>
					<dim>1</dim>
				</port>
			</output>
		</layer>
		<layer id="163" name="Conv_89/WithoutBiases" type="Convolution" version="opset1">
			<data dilations="1,1" output_padding="0,0" pads_begin="0,0" pads_end="0,0" strides="1,1"/>
			<input>
				<port id="0">
					<dim>1</dim>
					<dim>128</dim>
					<dim>40</dim>
					<dim>40</dim>
				</port>
				<port id="1">
					<dim>128</dim>
					<dim>128</dim>
					<dim>1</dim>
					<dim>1</dim>
				</port>
			</input>
			<output>
				<port id="2" precision="FP32">
					<dim>1</dim>
					<dim>128</dim>
					<dim>40</dim>
					<dim>40</dim>
				</port>
			</output>
		</layer>
		<layer id="164" name="Conv_89/Dims5225/copy_const" type="Const" version="opset1">
			<data element_type="f32" offset="2482660" shape="1,128,1,1" size="512"/>
			<output>
				<port id="1" precision="FP32">
					<dim>1</dim>
					<dim>128</dim>
					<dim>1</dim>
					<dim>1</dim>
				</port>
			</output>
		</layer>
		<layer id="165" name="Conv_89" type="Add" version="opset1">
			<input>
				<port id="0">
					<dim>1</dim>
					<dim>128</dim>
					<dim>40</dim>
					<dim>40</dim>
				</port>
				<port id="1">
					<dim>1</dim>
					<dim>128</dim>
					<dim>1</dim>
					<dim>1</dim>
				</port>
			</input>
			<output>
				<port id="2" precision="FP32">
					<dim>1</dim>
					<dim>128</dim>
					<dim>40</dim>
					<dim>40</dim>
				</port>
			</output>
		</layer>
		<layer id="166" name="LeakyRelu_9013595/Cast_118954_const" type="Const" version="opset1">
			<data element_type="f32" offset="14176" shape="1" size="4"/>
			<output>
				<port id="1" precision="FP32">
					<dim>1</dim>
				</port>
			</output>
		</layer>
		<layer id="167" name="LeakyRelu_9013595" type="PReLU" version="opset1">
			<input>
				<port id="0">
					<dim>1</dim>
					<dim>128</dim>
					<dim>40</dim>
					<dim>40</dim>
				</port>
				<port id="1">
					<dim>1</dim>
				</port>
			</input>
			<output>
				<port id="2" precision="FP32">
					<dim>1</dim>
					<dim>128</dim>
					<dim>40</dim>
					<dim>40</dim>
				</port>
			</output>
		</layer>
		<layer id="168" name="onnx_initializer_node_model.6.m.0.cv2.conv.weight/Output_0/Data__const" type="Const" version="opset1">
			<data element_type="f32" offset="2483172" shape="128,128,3,3" size="589824"/>
			<output>
				<port id="1" precision="FP32">
					<dim>128</dim>
					<dim>128</dim>
					<dim>3</dim>
					<dim>3</dim>
				</port>
			</output>
		</layer>
		<layer id="169" name="Conv_91/WithoutBiases" type="Convolution" version="opset1">
			<data dilations="1,1" output_padding="0,0" pads_begin="1,1" pads_end="1,1" strides="1,1"/>
			<input>
				<port id="0">
					<dim>1</dim>
					<dim>128</dim>
					<dim>40</dim>
					<dim>40</dim>
				</port>
				<port id="1">
					<dim>128</dim>
					<dim>128</dim>
					<dim>3</dim>
					<dim>3</dim>
				</port>
			</input>
			<output>
				<port id="2" precision="FP32">
					<dim>1</dim>
					<dim>128</dim>
					<dim>40</dim>
					<dim>40</dim>
				</port>
			</output>
		</layer>
		<layer id="170" name="Conv_91/Dims5363/copy_const" type="Const" version="opset1">
			<data element_type="f32" offset="3072996" shape="1,128,1,1" size="512"/>
			<output>
				<port id="1" precision="FP32">
					<dim>1</dim>
					<dim>128</dim>
					<dim>1</dim>
					<dim>1</dim>
				</port>
			</output>
		</layer>
		<layer id="171" name="Conv_91" type="Add" version="opset1">
			<input>
				<port id="0">
					<dim>1</dim>
					<dim>128</dim>
					<dim>40</dim>
					<dim>40</dim>
				</port>
				<port id="1">
					<dim>1</dim>
					<dim>128</dim>
					<dim>1</dim>
					<dim>1</dim>
				</port>
			</input>
			<output>
				<port id="2" precision="FP32">
					<dim>1</dim>
					<dim>128</dim>
					<dim>40</dim>
					<dim>40</dim>
				</port>
			</output>
		</layer>
		<layer id="172" name="LeakyRelu_9213427/Cast_118790_const" type="Const" version="opset1">
			<data element_type="f32" offset="14176" shape="1" size="4"/>
			<output>
				<port id="1" precision="FP32">
					<dim>1</dim>
				</port>
			</output>
		</layer>
		<layer id="173" name="LeakyRelu_9213427" type="PReLU" version="opset1">
			<input>
				<port id="0">
					<dim>1</dim>
					<dim>128</dim>
					<dim>40</dim>
					<dim>40</dim>
				</port>
				<port id="1">
					<dim>1</dim>
				</port>
			</input>
			<output>
				<port id="2" precision="FP32">
					<dim>1</dim>
					<dim>128</dim>
					<dim>40</dim>
					<dim>40</dim>
				</port>
			</output>
		</layer>
		<layer id="174" name="Add_93" type="Add" version="opset1">
			<input>
				<port id="0">
					<dim>1</dim>
					<dim>128</dim>
					<dim>40</dim>
					<dim>40</dim>
				</port>
				<port id="1">
					<dim>1</dim>
					<dim>128</dim>
					<dim>40</dim>
					<dim>40</dim>
				</port>
			</input>
			<output>
				<port id="2" precision="FP32">
					<dim>1</dim>
					<dim>128</dim>
					<dim>40</dim>
					<dim>40</dim>
				</port>
			</output>
		</layer>
		<layer id="175" name="onnx_initializer_node_model.6.m.1.cv1.conv.weight/Output_0/Data__const" type="Const" version="opset1">
			<data element_type="f32" offset="3073508" shape="128,128,1,1" size="65536"/>
			<output>
				<port id="1" precision="FP32">
					<dim>128</dim>
					<dim>128</dim>
					<dim>1</dim>
					<dim>1</dim>
				</port>
			</output>
		</layer>
		<layer id="176" name="Conv_94/WithoutBiases" type="Convolution" version="opset1">
			<data dilations="1,1" output_padding="0,0" pads_begin="0,0" pads_end="0,0" strides="1,1"/>
			<input>
				<port id="0">
					<dim>1</dim>
					<dim>128</dim>
					<dim>40</dim>
					<dim>40</dim>
				</port>
				<port id="1">
					<dim>128</dim>
					<dim>128</dim>
					<dim>1</dim>
					<dim>1</dim>
				</port>
			</input>
			<output>
				<port id="2" precision="FP32">
					<dim>1</dim>
					<dim>128</dim>
					<dim>40</dim>
					<dim>40</dim>
				</port>
			</output>
		</layer>
		<layer id="177" name="Conv_94/Dims5423/copy_const" type="Const" version="opset1">
			<data element_type="f32" offset="3139044" shape="1,128,1,1" size="512"/>
			<output>
				<port id="1" precision="FP32">
					<dim>1</dim>
					<dim>128</dim>
					<dim>1</dim>
					<dim>1</dim>
				</port>
			</output>
		</layer>
		<layer id="178" name="Conv_94" type="Add" version="opset1">
			<input>
				<port id="0">
					<dim>1</dim>
					<dim>128</dim>
					<dim>40</dim>
					<dim>40</dim>
				</port>
				<port id="1">
					<dim>1</dim>
					<dim>128</dim>
					<dim>1</dim>
					<dim>1</dim>
				</port>
			</input>
			<output>
				<port id="2" precision="FP32">
					<dim>1</dim>
					<dim>128</dim>
					<dim>40</dim>
					<dim>40</dim>
				</port>
			</output>
		</layer>
		<layer id="179" name="LeakyRelu_9513451/Cast_118772_const" type="Const" version="opset1">
			<data element_type="f32" offset="14176" shape="1" size="4"/>
			<output>
				<port id="1" precision="FP32">
					<dim>1</dim>
				</port>
			</output>
		</layer>
		<layer id="180" name="LeakyRelu_9513451" type="PReLU" version="opset1">
			<input>
				<port id="0">
					<dim>1</dim>
					<dim>128</dim>
					<dim>40</dim>
					<dim>40</dim>
				</port>
				<port id="1">
					<dim>1</dim>
				</port>
			</input>
			<output>
				<port id="2" precision="FP32">
					<dim>1</dim>
					<dim>128</dim>
					<dim>40</dim>
					<dim>40</dim>
				</port>
			</output>
		</layer>
		<layer id="181" name="onnx_initializer_node_model.6.m.1.cv2.conv.weight/Output_0/Data__const" type="Const" version="opset1">
			<data element_type="f32" offset="3139556" shape="128,128,3,3" size="589824"/>
			<output>
				<port id="1" precision="FP32">
					<dim>128</dim>
					<dim>128</dim>
					<dim>3</dim>
					<dim>3</dim>
				</port>
			</output>
		</layer>
		<layer id="182" name="Conv_96/WithoutBiases" type="Convolution" version="opset1">
			<data dilations="1,1" output_padding="0,0" pads_begin="1,1" pads_end="1,1" strides="1,1"/>
			<input>
				<port id="0">
					<dim>1</dim>
					<dim>128</dim>
					<dim>40</dim>
					<dim>40</dim>
				</port>
				<port id="1">
					<dim>128</dim>
					<dim>128</dim>
					<dim>3</dim>
					<dim>3</dim>
				</port>
			</input>
			<output>
				<port id="2" precision="FP32">
					<dim>1</dim>
					<dim>128</dim>
					<dim>40</dim>
					<dim>40</dim>
				</port>
			</output>
		</layer>
		<layer id="183" name="Conv_96/Dims5291/copy_const" type="Const" version="opset1">
			<data element_type="f32" offset="3729380" shape="1,128,1,1" size="512"/>
			<output>
				<port id="1" precision="FP32">
					<dim>1</dim>
					<dim>128</dim>
					<dim>1</dim>
					<dim>1</dim>
				</port>
			</output>
		</layer>
		<layer id="184" name="Conv_96" type="Add" version="opset1">
			<input>
				<port id="0">
					<dim>1</dim>
					<dim>128</dim>
					<dim>40</dim>
					<dim>40</dim>
				</port>
				<port id="1">
					<dim>1</dim>
					<dim>128</dim>
					<dim>1</dim>
					<dim>1</dim>
				</port>
			</input>
			<output>
				<port id="2" precision="FP32">
					<dim>1</dim>
					<dim>128</dim>
					<dim>40</dim>
					<dim>40</dim>
				</port>
			</output>
		</layer>
		<layer id="185" name="LeakyRelu_9713639/Cast_118886_const" type="Const" version="opset1">
			<data element_type="f32" offset="14176" shape="1" size="4"/>
			<output>
				<port id="1" precision="FP32">
					<dim>1</dim>
				</port>
			</output>
		</layer>
		<layer id="186" name="LeakyRelu_9713639" type="PReLU" version="opset1">
			<input>
				<port id="0">
					<dim>1</dim>
					<dim>128</dim>
					<dim>40</dim>
					<dim>40</dim>
				</port>
				<port id="1">
					<dim>1</dim>
				</port>
			</input>
			<output>
				<port id="2" precision="FP32">
					<dim>1</dim>
					<dim>128</dim>
					<dim>40</dim>
					<dim>40</dim>
				</port>
			</output>
		</layer>
		<layer id="187" name="Add_98" type="Add" version="opset1">
			<input>
				<port id="0">
					<dim>1</dim>
					<dim>128</dim>
					<dim>40</dim>
					<dim>40</dim>
				</port>
				<port id="1">
					<dim>1</dim>
					<dim>128</dim>
					<dim>40</dim>
					<dim>40</dim>
				</port>
			</input>
			<output>
				<port id="2" precision="FP32">
					<dim>1</dim>
					<dim>128</dim>
					<dim>40</dim>
					<dim>40</dim>
				</port>
			</output>
		</layer>
		<layer id="188" name="onnx_initializer_node_model.6.m.2.cv1.conv.weight/Output_0/Data__const" type="Const" version="opset1">
			<data element_type="f32" offset="3729892" shape="128,128,1,1" size="65536"/>
			<output>
				<port id="1" precision="FP32">
					<dim>128</dim>
					<dim>128</dim>
					<dim>1</dim>
					<dim>1</dim>
				</port>
			</output>
		</layer>
		<layer id="189" name="Conv_99/WithoutBiases" type="Convolution" version="opset1">
			<data dilations="1,1" output_padding="0,0" pads_begin="0,0" pads_end="0,0" strides="1,1"/>
			<input>
				<port id="0">
					<dim>1</dim>
					<dim>128</dim>
					<dim>40</dim>
					<dim>40</dim>
				</port>
				<port id="1">
					<dim>128</dim>
					<dim>128</dim>
					<dim>1</dim>
					<dim>1</dim>
				</port>
			</input>
			<output>
				<port id="2" precision="FP32">
					<dim>1</dim>
					<dim>128</dim>
					<dim>40</dim>
					<dim>40</dim>
				</port>
			</output>
		</layer>
		<layer id="190" name="Conv_99/Dims5435/copy_const" type="Const" version="opset1">
			<data element_type="f32" offset="3795428" shape="1,128,1,1" size="512"/>
			<output>
				<port id="1" precision="FP32">
					<dim>1</dim>
					<dim>128</dim>
					<dim>1</dim>
					<dim>1</dim>
				</port>
			</output>
		</layer>
		<layer id="191" name="Conv_99" type="Add" version="opset1">
			<input>
				<port id="0">
					<dim>1</dim>
					<dim>128</dim>
					<dim>40</dim>
					<dim>40</dim>
				</port>
				<port id="1">
					<dim>1</dim>
					<dim>128</dim>
					<dim>1</dim>
					<dim>1</dim>
				</port>
			</input>
			<output>
				<port id="2" precision="FP32">
					<dim>1</dim>
					<dim>128</dim>
					<dim>40</dim>
					<dim>40</dim>
				</port>
			</output>
		</layer>
		<layer id="192" name="LeakyRelu_10013467/Cast_118742_const" type="Const" version="opset1">
			<data element_type="f32" offset="14176" shape="1" size="4"/>
			<output>
				<port id="1" precision="FP32">
					<dim>1</dim>
				</port>
			</output>
		</layer>
		<layer id="193" name="LeakyRelu_10013467" type="PReLU" version="opset1">
			<input>
				<port id="0">
					<dim>1</dim>
					<dim>128</dim>
					<dim>40</dim>
					<dim>40</dim>
				</port>
				<port id="1">
					<dim>1</dim>
				</port>
			</input>
			<output>
				<port id="2" precision="FP32">
					<dim>1</dim>
					<dim>128</dim>
					<dim>40</dim>
					<dim>40</dim>
				</port>
			</output>
		</layer>
		<layer id="194" name="onnx_initializer_node_model.6.m.2.cv2.conv.weight/Output_0/Data__const" type="Const" version="opset1">
			<data element_type="f32" offset="3795940" shape="128,128,3,3" size="589824"/>
			<output>
				<port id="1" precision="FP32">
					<dim>128</dim>
					<dim>128</dim>
					<dim>3</dim>
					<dim>3</dim>
				</port>
			</output>
		</layer>
		<layer id="195" name="Conv_101/WithoutBiases" type="Convolution" version="opset1">
			<data dilations="1,1" output_padding="0,0" pads_begin="1,1" pads_end="1,1" strides="1,1"/>
			<input>
				<port id="0">
					<dim>1</dim>
					<dim>128</dim>
					<dim>40</dim>
					<dim>40</dim>
				</port>
				<port id="1">
					<dim>128</dim>
					<dim>128</dim>
					<dim>3</dim>
					<dim>3</dim>
				</port>
			</input>
			<output>
				<port id="2" precision="FP32">
					<dim>1</dim>
					<dim>128</dim>
					<dim>40</dim>
					<dim>40</dim>
				</port>
			</output>
		</layer>
		<layer id="196" name="Conv_101/Dims5261/copy_const" type="Const" version="opset1">
			<data element_type="f32" offset="4385764" shape="1,128,1,1" size="512"/>
			<output>
				<port id="1" precision="FP32">
					<dim>1</dim>
					<dim>128</dim>
					<dim>1</dim>
					<dim>1</dim>
				</port>
			</output>
		</layer>
		<layer id="197" name="Conv_101" type="Add" version="opset1">
			<input>
				<port id="0">
					<dim>1</dim>
					<dim>128</dim>
					<dim>40</dim>
					<dim>40</dim>
				</port>
				<port id="1">
					<dim>1</dim>
					<dim>128</dim>
					<dim>1</dim>
					<dim>1</dim>
				</port>
			</input>
			<output>
				<port id="2" precision="FP32">
					<dim>1</dim>
					<dim>128</dim>
					<dim>40</dim>
					<dim>40</dim>
				</port>
			</output>
		</layer>
		<layer id="198" name="LeakyRelu_10213635/Cast_118860_const" type="Const" version="opset1">
			<data element_type="f32" offset="14176" shape="1" size="4"/>
			<output>
				<port id="1" precision="FP32">
					<dim>1</dim>
				</port>
			</output>
		</layer>
		<layer id="199" name="LeakyRelu_10213635" type="PReLU" version="opset1">
			<input>
				<port id="0">
					<dim>1</dim>
					<dim>128</dim>
					<dim>40</dim>
					<dim>40</dim>
				</port>
				<port id="1">
					<dim>1</dim>
				</port>
			</input>
			<output>
				<port id="2" precision="FP32">
					<dim>1</dim>
					<dim>128</dim>
					<dim>40</dim>
					<dim>40</dim>
				</port>
			</output>
		</layer>
		<layer id="200" name="Add_103" type="Add" version="opset1">
			<input>
				<port id="0">
					<dim>1</dim>
					<dim>128</dim>
					<dim>40</dim>
					<dim>40</dim>
				</port>
				<port id="1">
					<dim>1</dim>
					<dim>128</dim>
					<dim>40</dim>
					<dim>40</dim>
				</port>
			</input>
			<output>
				<port id="2" precision="FP32">
					<dim>1</dim>
					<dim>128</dim>
					<dim>40</dim>
					<dim>40</dim>
				</port>
			</output>
		</layer>
		<layer id="201" name="onnx_initializer_node_model.6.cv3.weight/Output_0/Data__const" type="Const" version="opset1">
			<data element_type="f32" offset="4386276" shape="128,128,1,1" size="65536"/>
			<output>
				<port id="1" precision="FP32">
					<dim>128</dim>
					<dim>128</dim>
					<dim>1</dim>
					<dim>1</dim>
				</port>
			</output>
		</layer>
		<layer id="202" name="Conv_104" type="Convolution" version="opset1">
			<data dilations="1,1" output_padding="0,0" pads_begin="0,0" pads_end="0,0" strides="1,1"/>
			<input>
				<port id="0">
					<dim>1</dim>
					<dim>128</dim>
					<dim>40</dim>
					<dim>40</dim>
				</port>
				<port id="1">
					<dim>128</dim>
					<dim>128</dim>
					<dim>1</dim>
					<dim>1</dim>
				</port>
			</input>
			<output>
				<port id="2" precision="FP32">
					<dim>1</dim>
					<dim>128</dim>
					<dim>40</dim>
					<dim>40</dim>
				</port>
			</output>
		</layer>
		<layer id="203" name="onnx_initializer_node_model.6.cv2.weight/Output_0/Data__const" type="Const" version="opset1">
			<data element_type="f32" offset="4451812" shape="128,256,1,1" size="131072"/>
			<output>
				<port id="1" precision="FP32">
					<dim>128</dim>
					<dim>256</dim>
					<dim>1</dim>
					<dim>1</dim>
				</port>
			</output>
		</layer>
		<layer id="204" name="Conv_105" type="Convolution" version="opset1">
			<data dilations="1,1" output_padding="0,0" pads_begin="0,0" pads_end="0,0" strides="1,1"/>
			<input>
				<port id="0">
					<dim>1</dim>
					<dim>256</dim>
					<dim>40</dim>
					<dim>40</dim>
				</port>
				<port id="1">
					<dim>128</dim>
					<dim>256</dim>
					<dim>1</dim>
					<dim>1</dim>
				</port>
			</input>
			<output>
				<port id="2" precision="FP32">
					<dim>1</dim>
					<dim>128</dim>
					<dim>40</dim>
					<dim>40</dim>
				</port>
			</output>
		</layer>
		<layer id="205" name="Concat_106" type="Concat" version="opset1">
			<data axis="1"/>
			<input>
				<port id="0">
					<dim>1</dim>
					<dim>128</dim>
					<dim>40</dim>
					<dim>40</dim>
				</port>
				<port id="1">
					<dim>1</dim>
					<dim>128</dim>
					<dim>40</dim>
					<dim>40</dim>
				</port>
			</input>
			<output>
				<port id="2" precision="FP32">
					<dim>1</dim>
					<dim>256</dim>
					<dim>40</dim>
					<dim>40</dim>
				</port>
			</output>
		</layer>
		<layer id="206" name="data_mul_83848388/copy_const" type="Const" version="opset1">
			<data element_type="f32" offset="4582884" shape="1,256,1,1" size="1024"/>
			<output>
				<port id="1" precision="FP32">
					<dim>1</dim>
					<dim>256</dim>
					<dim>1</dim>
					<dim>1</dim>
				</port>
			</output>
		</layer>
		<layer id="207" name="BatchNormalization_107/mean/Fused_Mul_" type="Multiply" version="opset1">
			<input>
				<port id="0">
					<dim>1</dim>
					<dim>256</dim>
					<dim>40</dim>
					<dim>40</dim>
				</port>
				<port id="1">
					<dim>1</dim>
					<dim>256</dim>
					<dim>1</dim>
					<dim>1</dim>
				</port>
			</input>
			<output>
				<port id="2" precision="FP32">
					<dim>1</dim>
					<dim>256</dim>
					<dim>40</dim>
					<dim>40</dim>
				</port>
			</output>
		</layer>
		<layer id="208" name="data_add_83858390/copy_const" type="Const" version="opset1">
			<data element_type="f32" offset="4583908" shape="1,256,1,1" size="1024"/>
			<output>
				<port id="1" precision="FP32">
					<dim>1</dim>
					<dim>256</dim>
					<dim>1</dim>
					<dim>1</dim>
				</port>
			</output>
		</layer>
		<layer id="209" name="BatchNormalization_107/variance/Fused_Add_" type="Add" version="opset1">
			<input>
				<port id="0">
					<dim>1</dim>
					<dim>256</dim>
					<dim>40</dim>
					<dim>40</dim>
				</port>
				<port id="1">
					<dim>1</dim>
					<dim>256</dim>
					<dim>1</dim>
					<dim>1</dim>
				</port>
			</input>
			<output>
				<port id="2" precision="FP32">
					<dim>1</dim>
					<dim>256</dim>
					<dim>40</dim>
					<dim>40</dim>
				</port>
			</output>
		</layer>
		<layer id="210" name="LeakyRelu_10813551/Cast_118960_const" type="Const" version="opset1">
			<data element_type="f32" offset="14176" shape="1" size="4"/>
			<output>
				<port id="1" precision="FP32">
					<dim>1</dim>
				</port>
			</output>
		</layer>
		<layer id="211" name="LeakyRelu_10813551" type="PReLU" version="opset1">
			<input>
				<port id="0">
					<dim>1</dim>
					<dim>256</dim>
					<dim>40</dim>
					<dim>40</dim>
				</port>
				<port id="1">
					<dim>1</dim>
				</port>
			</input>
			<output>
				<port id="2" precision="FP32">
					<dim>1</dim>
					<dim>256</dim>
					<dim>40</dim>
					<dim>40</dim>
				</port>
			</output>
		</layer>
		<layer id="212" name="onnx_initializer_node_model.6.cv4.conv.weight/Output_0/Data__const" type="Const" version="opset1">
			<data element_type="f32" offset="4584932" shape="256,256,1,1" size="262144"/>
			<output>
				<port id="1" precision="FP32">
					<dim>256</dim>
					<dim>256</dim>
					<dim>1</dim>
					<dim>1</dim>
				</port>
			</output>
		</layer>
		<layer id="213" name="Conv_109/WithoutBiases" type="Convolution" version="opset1">
			<data dilations="1,1" output_padding="0,0" pads_begin="0,0" pads_end="0,0" strides="1,1"/>
			<input>
				<port id="0">
					<dim>1</dim>
					<dim>256</dim>
					<dim>40</dim>
					<dim>40</dim>
				</port>
				<port id="1">
					<dim>256</dim>
					<dim>256</dim>
					<dim>1</dim>
					<dim>1</dim>
				</port>
			</input>
			<output>
				<port id="2" precision="FP32">
					<dim>1</dim>
					<dim>256</dim>
					<dim>40</dim>
					<dim>40</dim>
				</port>
			</output>
		</layer>
		<layer id="214" name="Conv_109/Dims5213/copy_const" type="Const" version="opset1">
			<data element_type="f32" offset="4847076" shape="1,256,1,1" size="1024"/>
			<output>
				<port id="1" precision="FP32">
					<dim>1</dim>
					<dim>256</dim>
					<dim>1</dim>
					<dim>1</dim>
				</port>
			</output>
		</layer>
		<layer id="215" name="Conv_109" type="Add" version="opset1">
			<input>
				<port id="0">
					<dim>1</dim>
					<dim>256</dim>
					<dim>40</dim>
					<dim>40</dim>
				</port>
				<port id="1">
					<dim>1</dim>
					<dim>256</dim>
					<dim>1</dim>
					<dim>1</dim>
				</port>
			</input>
			<output>
				<port id="2" precision="FP32">
					<dim>1</dim>
					<dim>256</dim>
					<dim>40</dim>
					<dim>40</dim>
				</port>
			</output>
		</layer>
		<layer id="216" name="LeakyRelu_11013447/Cast_118774_const" type="Const" version="opset1">
			<data element_type="f32" offset="14176" shape="1" size="4"/>
			<output>
				<port id="1" precision="FP32">
					<dim>1</dim>
				</port>
			</output>
		</layer>
		<layer id="217" name="LeakyRelu_11013447" type="PReLU" version="opset1">
			<input>
				<port id="0">
					<dim>1</dim>
					<dim>256</dim>
					<dim>40</dim>
					<dim>40</dim>
				</port>
				<port id="1">
					<dim>1</dim>
				</port>
			</input>
			<output>
				<port id="2" precision="FP32">
					<dim>1</dim>
					<dim>256</dim>
					<dim>40</dim>
					<dim>40</dim>
				</port>
			</output>
		</layer>
		<layer id="218" name="onnx_initializer_node_model.7.conv.weight/Output_0/Data__const" type="Const" version="opset1">
			<data element_type="f32" offset="4848100" shape="512,256,3,3" size="4718592"/>
			<output>
				<port id="1" precision="FP32">
					<dim>512</dim>
					<dim>256</dim>
					<dim>3</dim>
					<dim>3</dim>
				</port>
			</output>
		</layer>
		<layer id="219" name="Conv_111/WithoutBiases" type="Convolution" version="opset1">
			<data dilations="1,1" output_padding="0,0" pads_begin="1,1" pads_end="1,1" strides="2,2"/>
			<input>
				<port id="0">
					<dim>1</dim>
					<dim>256</dim>
					<dim>40</dim>
					<dim>40</dim>
				</port>
				<port id="1">
					<dim>512</dim>
					<dim>256</dim>
					<dim>3</dim>
					<dim>3</dim>
				</port>
			</input>
			<output>
				<port id="2" precision="FP32">
					<dim>1</dim>
					<dim>512</dim>
					<dim>20</dim>
					<dim>20</dim>
				</port>
			</output>
		</layer>
		<layer id="220" name="Conv_111/Dims5273/copy_const" type="Const" version="opset1">
			<data element_type="f32" offset="9566692" shape="1,512,1,1" size="2048"/>
			<output>
				<port id="1" precision="FP32">
					<dim>1</dim>
					<dim>512</dim>
					<dim>1</dim>
					<dim>1</dim>
				</port>
			</output>
		</layer>
		<layer id="221" name="Conv_111" type="Add" version="opset1">
			<input>
				<port id="0">
					<dim>1</dim>
					<dim>512</dim>
					<dim>20</dim>
					<dim>20</dim>
				</port>
				<port id="1">
					<dim>1</dim>
					<dim>512</dim>
					<dim>1</dim>
					<dim>1</dim>
				</port>
			</input>
			<output>
				<port id="2" precision="FP32">
					<dim>1</dim>
					<dim>512</dim>
					<dim>20</dim>
					<dim>20</dim>
				</port>
			</output>
		</layer>
		<layer id="222" name="LeakyRelu_11213555/Cast_118744_const" type="Const" version="opset1">
			<data element_type="f32" offset="14176" shape="1" size="4"/>
			<output>
				<port id="1" precision="FP32">
					<dim>1</dim>
				</port>
			</output>
		</layer>
		<layer id="223" name="LeakyRelu_11213555" type="PReLU" version="opset1">
			<input>
				<port id="0">
					<dim>1</dim>
					<dim>512</dim>
					<dim>20</dim>
					<dim>20</dim>
				</port>
				<port id="1">
					<dim>1</dim>
				</port>
			</input>
			<output>
				<port id="2" precision="FP32">
					<dim>1</dim>
					<dim>512</dim>
					<dim>20</dim>
					<dim>20</dim>
				</port>
			</output>
		</layer>
		<layer id="224" name="onnx_initializer_node_model.8.cv1.conv.weight/Output_0/Data__const" type="Const" version="opset1">
			<data element_type="f32" offset="9568740" shape="256,512,1,1" size="524288"/>
			<output>
				<port id="1" precision="FP32">
					<dim>256</dim>
					<dim>512</dim>
					<dim>1</dim>
					<dim>1</dim>
				</port>
			</output>
		</layer>
		<layer id="225" name="Conv_113/WithoutBiases" type="Convolution" version="opset1">
			<data dilations="1,1" output_padding="0,0" pads_begin="0,0" pads_end="0,0" strides="1,1"/>
			<input>
				<port id="0">
					<dim>1</dim>
					<dim>512</dim>
					<dim>20</dim>
					<dim>20</dim>
				</port>
				<port id="1">
					<dim>256</dim>
					<dim>512</dim>
					<dim>1</dim>
					<dim>1</dim>
				</port>
			</input>
			<output>
				<port id="2" precision="FP32">
					<dim>1</dim>
					<dim>256</dim>
					<dim>20</dim>
					<dim>20</dim>
				</port>
			</output>
		</layer>
		<layer id="226" name="Conv_113/Dims5393/copy_const" type="Const" version="opset1">
			<data element_type="f32" offset="10093028" shape="1,256,1,1" size="1024"/>
			<output>
				<port id="1" precision="FP32">
					<dim>1</dim>
					<dim>256</dim>
					<dim>1</dim>
					<dim>1</dim>
				</port>
			</output>
		</layer>
		<layer id="227" name="Conv_113" type="Add" version="opset1">
			<input>
				<port id="0">
					<dim>1</dim>
					<dim>256</dim>
					<dim>20</dim>
					<dim>20</dim>
				</port>
				<port id="1">
					<dim>1</dim>
					<dim>256</dim>
					<dim>1</dim>
					<dim>1</dim>
				</port>
			</input>
			<output>
				<port id="2" precision="FP32">
					<dim>1</dim>
					<dim>256</dim>
					<dim>20</dim>
					<dim>20</dim>
				</port>
			</output>
		</layer>
		<layer id="228" name="LeakyRelu_11413615/Cast_118918_const" type="Const" version="opset1">
			<data element_type="f32" offset="14176" shape="1" size="4"/>
			<output>
				<port id="1" precision="FP32">
					<dim>1</dim>
				</port>
			</output>
		</layer>
		<layer id="229" name="LeakyRelu_11413615" type="PReLU" version="opset1">
			<input>
				<port id="0">
					<dim>1</dim>
					<dim>256</dim>
					<dim>20</dim>
					<dim>20</dim>
				</port>
				<port id="1">
					<dim>1</dim>
				</port>
			</input>
			<output>
				<port id="2" precision="FP32">
					<dim>1</dim>
					<dim>256</dim>
					<dim>20</dim>
					<dim>20</dim>
				</port>
			</output>
		</layer>
		<layer id="230" name="MaxPool_115" type="MaxPool" version="opset1">
			<data kernel="5,5" pads_begin="2,2" pads_end="2,2" rounding_type="floor" strides="1,1"/>
			<input>
				<port id="0">
					<dim>1</dim>
					<dim>256</dim>
					<dim>20</dim>
					<dim>20</dim>
				</port>
			</input>
			<output>
				<port id="1" precision="FP32">
					<dim>1</dim>
					<dim>256</dim>
					<dim>20</dim>
					<dim>20</dim>
				</port>
			</output>
		</layer>
		<layer id="231" name="MaxPool_116" type="MaxPool" version="opset1">
			<data kernel="9,9" pads_begin="4,4" pads_end="4,4" rounding_type="floor" strides="1,1"/>
			<input>
				<port id="0">
					<dim>1</dim>
					<dim>256</dim>
					<dim>20</dim>
					<dim>20</dim>
				</port>
			</input>
			<output>
				<port id="1" precision="FP32">
					<dim>1</dim>
					<dim>256</dim>
					<dim>20</dim>
					<dim>20</dim>
				</port>
			</output>
		</layer>
		<layer id="232" name="MaxPool_117" type="MaxPool" version="opset1">
			<data kernel="13,13" pads_begin="6,6" pads_end="6,6" rounding_type="floor" strides="1,1"/>
			<input>
				<port id="0">
					<dim>1</dim>
					<dim>256</dim>
					<dim>20</dim>
					<dim>20</dim>
				</port>
			</input>
			<output>
				<port id="1" precision="FP32">
					<dim>1</dim>
					<dim>256</dim>
					<dim>20</dim>
					<dim>20</dim>
				</port>
			</output>
		</layer>
		<layer id="233" name="Concat_118" type="Concat" version="opset1">
			<data axis="1"/>
			<input>
				<port id="0">
					<dim>1</dim>
					<dim>256</dim>
					<dim>20</dim>
					<dim>20</dim>
				</port>
				<port id="1">
					<dim>1</dim>
					<dim>256</dim>
					<dim>20</dim>
					<dim>20</dim>
				</port>
				<port id="2">
					<dim>1</dim>
					<dim>256</dim>
					<dim>20</dim>
					<dim>20</dim>
				</port>
				<port id="3">
					<dim>1</dim>
					<dim>256</dim>
					<dim>20</dim>
					<dim>20</dim>
				</port>
			</input>
			<output>
				<port id="4" precision="FP32">
					<dim>1</dim>
					<dim>1024</dim>
					<dim>20</dim>
					<dim>20</dim>
				</port>
			</output>
		</layer>
		<layer id="234" name="onnx_initializer_node_model.8.cv2.conv.weight/Output_0/Data__const" type="Const" version="opset1">
			<data element_type="f32" offset="10094052" shape="512,1024,1,1" size="2097152"/>
			<output>
				<port id="1" precision="FP32">
					<dim>512</dim>
					<dim>1024</dim>
					<dim>1</dim>
					<dim>1</dim>
				</port>
			</output>
		</layer>
		<layer id="235" name="Conv_119/WithoutBiases" type="Convolution" version="opset1">
			<data dilations="1,1" output_padding="0,0" pads_begin="0,0" pads_end="0,0" strides="1,1"/>
			<input>
				<port id="0">
					<dim>1</dim>
					<dim>1024</dim>
					<dim>20</dim>
					<dim>20</dim>
				</port>
				<port id="1">
					<dim>512</dim>
					<dim>1024</dim>
					<dim>1</dim>
					<dim>1</dim>
				</port>
			</input>
			<output>
				<port id="2" precision="FP32">
					<dim>1</dim>
					<dim>512</dim>
					<dim>20</dim>
					<dim>20</dim>
				</port>
			</output>
		</layer>
		<layer id="236" name="Conv_119/Dims5243/copy_const" type="Const" version="opset1">
			<data element_type="f32" offset="12191204" shape="1,512,1,1" size="2048"/>
			<output>
				<port id="1" precision="FP32">
					<dim>1</dim>
					<dim>512</dim>
					<dim>1</dim>
					<dim>1</dim>
				</port>
			</output>
		</layer>
		<layer id="237" name="Conv_119" type="Add" version="opset1">
			<input>
				<port id="0">
					<dim>1</dim>
					<dim>512</dim>
					<dim>20</dim>
					<dim>20</dim>
				</port>
				<port id="1">
					<dim>1</dim>
					<dim>512</dim>
					<dim>1</dim>
					<dim>1</dim>
				</port>
			</input>
			<output>
				<port id="2" precision="FP32">
					<dim>1</dim>
					<dim>512</dim>
					<dim>20</dim>
					<dim>20</dim>
				</port>
			</output>
		</layer>
		<layer id="238" name="LeakyRelu_12013431/Cast_118776_const" type="Const" version="opset1">
			<data element_type="f32" offset="14176" shape="1" size="4"/>
			<output>
				<port id="1" precision="FP32">
					<dim>1</dim>
				</port>
			</output>
		</layer>
		<layer id="239" name="LeakyRelu_12013431" type="PReLU" version="opset1">
			<input>
				<port id="0">
					<dim>1</dim>
					<dim>512</dim>
					<dim>20</dim>
					<dim>20</dim>
				</port>
				<port id="1">
					<dim>1</dim>
				</port>
			</input>
			<output>
				<port id="2" precision="FP32">
					<dim>1</dim>
					<dim>512</dim>
					<dim>20</dim>
					<dim>20</dim>
				</port>
			</output>
		</layer>
		<layer id="240" name="onnx_initializer_node_model.9.cv1.conv.weight/Output_0/Data__const" type="Const" version="opset1">
			<data element_type="f32" offset="12193252" shape="256,512,1,1" size="524288"/>
			<output>
				<port id="1" precision="FP32">
					<dim>256</dim>
					<dim>512</dim>
					<dim>1</dim>
					<dim>1</dim>
				</port>
			</output>
		</layer>
		<layer id="241" name="Conv_121/WithoutBiases" type="Convolution" version="opset1">
			<data dilations="1,1" output_padding="0,0" pads_begin="0,0" pads_end="0,0" strides="1,1"/>
			<input>
				<port id="0">
					<dim>1</dim>
					<dim>512</dim>
					<dim>20</dim>
					<dim>20</dim>
				</port>
				<port id="1">
					<dim>256</dim>
					<dim>512</dim>
					<dim>1</dim>
					<dim>1</dim>
				</port>
			</input>
			<output>
				<port id="2" precision="FP32">
					<dim>1</dim>
					<dim>256</dim>
					<dim>20</dim>
					<dim>20</dim>
				</port>
			</output>
		</layer>
		<layer id="242" name="Conv_121/Dims5405/copy_const" type="Const" version="opset1">
			<data element_type="f32" offset="12717540" shape="1,256,1,1" size="1024"/>
			<output>
				<port id="1" precision="FP32">
					<dim>1</dim>
					<dim>256</dim>
					<dim>1</dim>
					<dim>1</dim>
				</port>
			</output>
		</layer>
		<layer id="243" name="Conv_121" type="Add" version="opset1">
			<input>
				<port id="0">
					<dim>1</dim>
					<dim>256</dim>
					<dim>20</dim>
					<dim>20</dim>
				</port>
				<port id="1">
					<dim>1</dim>
					<dim>256</dim>
					<dim>1</dim>
					<dim>1</dim>
				</port>
			</input>
			<output>
				<port id="2" precision="FP32">
					<dim>1</dim>
					<dim>256</dim>
					<dim>20</dim>
					<dim>20</dim>
				</port>
			</output>
		</layer>
		<layer id="244" name="LeakyRelu_12213515/Cast_118884_const" type="Const" version="opset1">
			<data element_type="f32" offset="14176" shape="1" size="4"/>
			<output>
				<port id="1" precision="FP32">
					<dim>1</dim>
				</port>
			</output>
		</layer>
		<layer id="245" name="LeakyRelu_12213515" type="PReLU" version="opset1">
			<input>
				<port id="0">
					<dim>1</dim>
					<dim>256</dim>
					<dim>20</dim>
					<dim>20</dim>
				</port>
				<port id="1">
					<dim>1</dim>
				</port>
			</input>
			<output>
				<port id="2" precision="FP32">
					<dim>1</dim>
					<dim>256</dim>
					<dim>20</dim>
					<dim>20</dim>
				</port>
			</output>
		</layer>
		<layer id="246" name="onnx_initializer_node_model.9.m.0.cv1.conv.weight/Output_0/Data__const" type="Const" version="opset1">
			<data element_type="f32" offset="12718564" shape="256,256,1,1" size="262144"/>
			<output>
				<port id="1" precision="FP32">
					<dim>256</dim>
					<dim>256</dim>
					<dim>1</dim>
					<dim>1</dim>
				</port>
			</output>
		</layer>
		<layer id="247" name="Conv_123/WithoutBiases" type="Convolution" version="opset1">
			<data dilations="1,1" output_padding="0,0" pads_begin="0,0" pads_end="0,0" strides="1,1"/>
			<input>
				<port id="0">
					<dim>1</dim>
					<dim>256</dim>
					<dim>20</dim>
					<dim>20</dim>
				</port>
				<port id="1">
					<dim>256</dim>
					<dim>256</dim>
					<dim>1</dim>
					<dim>1</dim>
				</port>
			</input>
			<output>
				<port id="2" precision="FP32">
					<dim>1</dim>
					<dim>256</dim>
					<dim>20</dim>
					<dim>20</dim>
				</port>
			</output>
		</layer>
		<layer id="248" name="Conv_123/Dims5249/copy_const" type="Const" version="opset1">
			<data element_type="f32" offset="12980708" shape="1,256,1,1" size="1024"/>
			<output>
				<port id="1" precision="FP32">
					<dim>1</dim>
					<dim>256</dim>
					<dim>1</dim>
					<dim>1</dim>
				</port>
			</output>
		</layer>
		<layer id="249" name="Conv_123" type="Add" version="opset1">
			<input>
				<port id="0">
					<dim>1</dim>
					<dim>256</dim>
					<dim>20</dim>
					<dim>20</dim>
				</port>
				<port id="1">
					<dim>1</dim>
					<dim>256</dim>
					<dim>1</dim>
					<dim>1</dim>
				</port>
			</input>
			<output>
				<port id="2" precision="FP32">
					<dim>1</dim>
					<dim>256</dim>
					<dim>20</dim>
					<dim>20</dim>
				</port>
			</output>
		</layer>
		<layer id="250" name="LeakyRelu_12413591/Cast_118932_const" type="Const" version="opset1">
			<data element_type="f32" offset="14176" shape="1" size="4"/>
			<output>
				<port id="1" precision="FP32">
					<dim>1</dim>
				</port>
			</output>
		</layer>
		<layer id="251" name="LeakyRelu_12413591" type="PReLU" version="opset1">
			<input>
				<port id="0">
					<dim>1</dim>
					<dim>256</dim>
					<dim>20</dim>
					<dim>20</dim>
				</port>
				<port id="1">
					<dim>1</dim>
				</port>
			</input>
			<output>
				<port id="2" precision="FP32">
					<dim>1</dim>
					<dim>256</dim>
					<dim>20</dim>
					<dim>20</dim>
				</port>
			</output>
		</layer>
		<layer id="252" name="onnx_initializer_node_model.9.m.0.cv2.conv.weight/Output_0/Data__const" type="Const" version="opset1">
			<data element_type="f32" offset="12981732" shape="256,256,3,3" size="2359296"/>
			<output>
				<port id="1" precision="FP32">
					<dim>256</dim>
					<dim>256</dim>
					<dim>3</dim>
					<dim>3</dim>
				</port>
			</output>
		</layer>
		<layer id="253" name="Conv_125/WithoutBiases" type="Convolution" version="opset1">
			<data dilations="1,1" output_padding="0,0" pads_begin="1,1" pads_end="1,1" strides="1,1"/>
			<input>
				<port id="0">
					<dim>1</dim>
					<dim>256</dim>
					<dim>20</dim>
					<dim>20</dim>
				</port>
				<port id="1">
					<dim>256</dim>
					<dim>256</dim>
					<dim>3</dim>
					<dim>3</dim>
				</port>
			</input>
			<output>
				<port id="2" precision="FP32">
					<dim>1</dim>
					<dim>256</dim>
					<dim>20</dim>
					<dim>20</dim>
				</port>
			</output>
		</layer>
		<layer id="254" name="Conv_125/Dims5297/copy_const" type="Const" version="opset1">
			<data element_type="f32" offset="15341028" shape="1,256,1,1" size="1024"/>
			<output>
				<port id="1" precision="FP32">
					<dim>1</dim>
					<dim>256</dim>
					<dim>1</dim>
					<dim>1</dim>
				</port>
			</output>
		</layer>
		<layer id="255" name="Conv_125" type="Add" version="opset1">
			<input>
				<port id="0">
					<dim>1</dim>
					<dim>256</dim>
					<dim>20</dim>
					<dim>20</dim>
				</port>
				<port id="1">
					<dim>1</dim>
					<dim>256</dim>
					<dim>1</dim>
					<dim>1</dim>
				</port>
			</input>
			<output>
				<port id="2" precision="FP32">
					<dim>1</dim>
					<dim>256</dim>
					<dim>20</dim>
					<dim>20</dim>
				</port>
			</output>
		</layer>
		<layer id="256" name="LeakyRelu_12613439/Cast_118752_const" type="Const" version="opset1">
			<data element_type="f32" offset="14176" shape="1" size="4"/>
			<output>
				<port id="1" precision="FP32">
					<dim>1</dim>
				</port>
			</output>
		</layer>
		<layer id="257" name="LeakyRelu_12613439" type="PReLU" version="opset1">
			<input>
				<port id="0">
					<dim>1</dim>
					<dim>256</dim>
					<dim>20</dim>
					<dim>20</dim>
				</port>
				<port id="1">
					<dim>1</dim>
				</port>
			</input>
			<output>
				<port id="2" precision="FP32">
					<dim>1</dim>
					<dim>256</dim>
					<dim>20</dim>
					<dim>20</dim>
				</port>
			</output>
		</layer>
		<layer id="258" name="onnx_initializer_node_model.9.cv3.weight/Output_0/Data__const" type="Const" version="opset1">
			<data element_type="f32" offset="15342052" shape="256,256,1,1" size="262144"/>
			<output>
				<port id="1" precision="FP32">
					<dim>256</dim>
					<dim>256</dim>
					<dim>1</dim>
					<dim>1</dim>
				</port>
			</output>
		</layer>
		<layer id="259" name="Conv_127" type="Convolution" version="opset1">
			<data dilations="1,1" output_padding="0,0" pads_begin="0,0" pads_end="0,0" strides="1,1"/>
			<input>
				<port id="0">
					<dim>1</dim>
					<dim>256</dim>
					<dim>20</dim>
					<dim>20</dim>
				</port>
				<port id="1">
					<dim>256</dim>
					<dim>256</dim>
					<dim>1</dim>
					<dim>1</dim>
				</port>
			</input>
			<output>
				<port id="2" precision="FP32">
					<dim>1</dim>
					<dim>256</dim>
					<dim>20</dim>
					<dim>20</dim>
				</port>
			</output>
		</layer>
		<layer id="260" name="onnx_initializer_node_model.9.cv2.weight/Output_0/Data__const" type="Const" version="opset1">
			<data element_type="f32" offset="15604196" shape="256,512,1,1" size="524288"/>
			<output>
				<port id="1" precision="FP32">
					<dim>256</dim>
					<dim>512</dim>
					<dim>1</dim>
					<dim>1</dim>
				</port>
			</output>
		</layer>
		<layer id="261" name="Conv_128" type="Convolution" version="opset1">
			<data dilations="1,1" output_padding="0,0" pads_begin="0,0" pads_end="0,0" strides="1,1"/>
			<input>
				<port id="0">
					<dim>1</dim>
					<dim>512</dim>
					<dim>20</dim>
					<dim>20</dim>
				</port>
				<port id="1">
					<dim>256</dim>
					<dim>512</dim>
					<dim>1</dim>
					<dim>1</dim>
				</port>
			</input>
			<output>
				<port id="2" precision="FP32">
					<dim>1</dim>
					<dim>256</dim>
					<dim>20</dim>
					<dim>20</dim>
				</port>
			</output>
		</layer>
		<layer id="262" name="Concat_129" type="Concat" version="opset1">
			<data axis="1"/>
			<input>
				<port id="0">
					<dim>1</dim>
					<dim>256</dim>
					<dim>20</dim>
					<dim>20</dim>
				</port>
				<port id="1">
					<dim>1</dim>
					<dim>256</dim>
					<dim>20</dim>
					<dim>20</dim>
				</port>
			</input>
			<output>
				<port id="2" precision="FP32">
					<dim>1</dim>
					<dim>512</dim>
					<dim>20</dim>
					<dim>20</dim>
				</port>
			</output>
		</layer>
		<layer id="263" name="data_mul_83928396/copy_const" type="Const" version="opset1">
			<data element_type="f32" offset="16128484" shape="1,512,1,1" size="2048"/>
			<output>
				<port id="1" precision="FP32">
					<dim>1</dim>
					<dim>512</dim>
					<dim>1</dim>
					<dim>1</dim>
				</port>
			</output>
		</layer>
		<layer id="264" name="BatchNormalization_130/mean/Fused_Mul_" type="Multiply" version="opset1">
			<input>
				<port id="0">
					<dim>1</dim>
					<dim>512</dim>
					<dim>20</dim>
					<dim>20</dim>
				</port>
				<port id="1">
					<dim>1</dim>
					<dim>512</dim>
					<dim>1</dim>
					<dim>1</dim>
				</port>
			</input>
			<output>
				<port id="2" precision="FP32">
					<dim>1</dim>
					<dim>512</dim>
					<dim>20</dim>
					<dim>20</dim>
				</port>
			</output>
		</layer>
		<layer id="265" name="data_add_83938398/copy_const" type="Const" version="opset1">
			<data element_type="f32" offset="16130532" shape="1,512,1,1" size="2048"/>
			<output>
				<port id="1" precision="FP32">
					<dim>1</dim>
					<dim>512</dim>
					<dim>1</dim>
					<dim>1</dim>
				</port>
			</output>
		</layer>
		<layer id="266" name="BatchNormalization_130/variance/Fused_Add_" type="Add" version="opset1">
			<input>
				<port id="0">
					<dim>1</dim>
					<dim>512</dim>
					<dim>20</dim>
					<dim>20</dim>
				</port>
				<port id="1">
					<dim>1</dim>
					<dim>512</dim>
					<dim>1</dim>
					<dim>1</dim>
				</port>
			</input>
			<output>
				<port id="2" precision="FP32">
					<dim>1</dim>
					<dim>512</dim>
					<dim>20</dim>
					<dim>20</dim>
				</port>
			</output>
		</layer>
		<layer id="267" name="LeakyRelu_13113471/Cast_118806_const" type="Const" version="opset1">
			<data element_type="f32" offset="14176" shape="1" size="4"/>
			<output>
				<port id="1" precision="FP32">
					<dim>1</dim>
				</port>
			</output>
		</layer>
		<layer id="268" name="LeakyRelu_13113471" type="PReLU" version="opset1">
			<input>
				<port id="0">
					<dim>1</dim>
					<dim>512</dim>
					<dim>20</dim>
					<dim>20</dim>
				</port>
				<port id="1">
					<dim>1</dim>
				</port>
			</input>
			<output>
				<port id="2" precision="FP32">
					<dim>1</dim>
					<dim>512</dim>
					<dim>20</dim>
					<dim>20</dim>
				</port>
			</output>
		</layer>
		<layer id="269" name="onnx_initializer_node_model.9.cv4.conv.weight/Output_0/Data__const" type="Const" version="opset1">
			<data element_type="f32" offset="16132580" shape="512,512,1,1" size="1048576"/>
			<output>
				<port id="1" precision="FP32">
					<dim>512</dim>
					<dim>512</dim>
					<dim>1</dim>
					<dim>1</dim>
				</port>
			</output>
		</layer>
		<layer id="270" name="Conv_132/WithoutBiases" type="Convolution" version="opset1">
			<data dilations="1,1" output_padding="0,0" pads_begin="0,0" pads_end="0,0" strides="1,1"/>
			<input>
				<port id="0">
					<dim>1</dim>
					<dim>512</dim>
					<dim>20</dim>
					<dim>20</dim>
				</port>
				<port id="1">
					<dim>512</dim>
					<dim>512</dim>
					<dim>1</dim>
					<dim>1</dim>
				</port>
			</input>
			<output>
				<port id="2" precision="FP32">
					<dim>1</dim>
					<dim>512</dim>
					<dim>20</dim>
					<dim>20</dim>
				</port>
			</output>
		</layer>
		<layer id="271" name="Conv_132/Dims5237/copy_const" type="Const" version="opset1">
			<data element_type="f32" offset="17181156" shape="1,512,1,1" size="2048"/>
			<output>
				<port id="1" precision="FP32">
					<dim>1</dim>
					<dim>512</dim>
					<dim>1</dim>
					<dim>1</dim>
				</port>
			</output>
		</layer>
		<layer id="272" name="Conv_132" type="Add" version="opset1">
			<input>
				<port id="0">
					<dim>1</dim>
					<dim>512</dim>
					<dim>20</dim>
					<dim>20</dim>
				</port>
				<port id="1">
					<dim>1</dim>
					<dim>512</dim>
					<dim>1</dim>
					<dim>1</dim>
				</port>
			</input>
			<output>
				<port id="2" precision="FP32">
					<dim>1</dim>
					<dim>512</dim>
					<dim>20</dim>
					<dim>20</dim>
				</port>
			</output>
		</layer>
		<layer id="273" name="LeakyRelu_13313479/Cast_118904_const" type="Const" version="opset1">
			<data element_type="f32" offset="14176" shape="1" size="4"/>
			<output>
				<port id="1" precision="FP32">
					<dim>1</dim>
				</port>
			</output>
		</layer>
		<layer id="274" name="LeakyRelu_13313479" type="PReLU" version="opset1">
			<input>
				<port id="0">
					<dim>1</dim>
					<dim>512</dim>
					<dim>20</dim>
					<dim>20</dim>
				</port>
				<port id="1">
					<dim>1</dim>
				</port>
			</input>
			<output>
				<port id="2" precision="FP32">
					<dim>1</dim>
					<dim>512</dim>
					<dim>20</dim>
					<dim>20</dim>
				</port>
			</output>
		</layer>
		<layer id="275" name="onnx_initializer_node_model.10.conv.weight/Output_0/Data__const" type="Const" version="opset1">
			<data element_type="f32" offset="17183204" shape="256,512,1,1" size="524288"/>
			<output>
				<port id="1" precision="FP32">
					<dim>256</dim>
					<dim>512</dim>
					<dim>1</dim>
					<dim>1</dim>
				</port>
			</output>
		</layer>
		<layer id="276" name="Conv_134/WithoutBiases" type="Convolution" version="opset1">
			<data dilations="1,1" output_padding="0,0" pads_begin="0,0" pads_end="0,0" strides="1,1"/>
			<input>
				<port id="0">
					<dim>1</dim>
					<dim>512</dim>
					<dim>20</dim>
					<dim>20</dim>
				</port>
				<port id="1">
					<dim>256</dim>
					<dim>512</dim>
					<dim>1</dim>
					<dim>1</dim>
				</port>
			</input>
			<output>
				<port id="2" precision="FP32">
					<dim>1</dim>
					<dim>256</dim>
					<dim>20</dim>
					<dim>20</dim>
				</port>
			</output>
		</layer>
		<layer id="277" name="Conv_134/Dims5231/copy_const" type="Const" version="opset1">
			<data element_type="f32" offset="17707492" shape="1,256,1,1" size="1024"/>
			<output>
				<port id="1" precision="FP32">
					<dim>1</dim>
					<dim>256</dim>
					<dim>1</dim>
					<dim>1</dim>
				</port>
			</output>
		</layer>
		<layer id="278" name="Conv_134" type="Add" version="opset1">
			<input>
				<port id="0">
					<dim>1</dim>
					<dim>256</dim>
					<dim>20</dim>
					<dim>20</dim>
				</port>
				<port id="1">
					<dim>1</dim>
					<dim>256</dim>
					<dim>1</dim>
					<dim>1</dim>
				</port>
			</input>
			<output>
				<port id="2" precision="FP32">
					<dim>1</dim>
					<dim>256</dim>
					<dim>20</dim>
					<dim>20</dim>
				</port>
			</output>
		</layer>
		<layer id="279" name="LeakyRelu_13513651/Cast_118792_const" type="Const" version="opset1">
			<data element_type="f32" offset="14176" shape="1" size="4"/>
			<output>
				<port id="1" precision="FP32">
					<dim>1</dim>
				</port>
			</output>
		</layer>
		<layer id="280" name="LeakyRelu_13513651" type="PReLU" version="opset1">
			<input>
				<port id="0">
					<dim>1</dim>
					<dim>256</dim>
					<dim>20</dim>
					<dim>20</dim>
				</port>
				<port id="1">
					<dim>1</dim>
				</port>
			</input>
			<output>
				<port id="2" precision="FP32">
					<dim>1</dim>
					<dim>256</dim>
					<dim>20</dim>
					<dim>20</dim>
				</port>
			</output>
		</layer>
		<layer id="281" name="Interpolate/Resize_165/Cast_118900_const" type="Const" version="opset1">
			<data element_type="i64" offset="17708516" shape="2" size="16"/>
			<output>
				<port id="1" precision="I64">
					<dim>2</dim>
				</port>
			</output>
		</layer>
		<layer id="282" name="Interpolate/Resize_165" type="Interpolate" version="opset1">
			<data align_corners="0" antialias="0" axes="2,3" mode="nearest" pads_begin="0" pads_end="0"/>
			<input>
				<port id="0">
					<dim>1</dim>
					<dim>256</dim>
					<dim>20</dim>
					<dim>20</dim>
				</port>
				<port id="1">
					<dim>2</dim>
				</port>
			</input>
			<output>
				<port id="2" precision="FP32">
					<dim>1</dim>
					<dim>256</dim>
					<dim>40</dim>
					<dim>40</dim>
				</port>
			</output>
		</layer>
		<layer id="283" name="Concat_166" type="Concat" version="opset1">
			<data axis="1"/>
			<input>
				<port id="0">
					<dim>1</dim>
					<dim>256</dim>
					<dim>40</dim>
					<dim>40</dim>
				</port>
				<port id="1">
					<dim>1</dim>
					<dim>256</dim>
					<dim>40</dim>
					<dim>40</dim>
				</port>
			</input>
			<output>
				<port id="2" precision="FP32">
					<dim>1</dim>
					<dim>512</dim>
					<dim>40</dim>
					<dim>40</dim>
				</port>
			</output>
		</layer>
		<layer id="284" name="onnx_initializer_node_model.13.cv1.conv.weight/Output_0/Data__const" type="Const" version="opset1">
			<data element_type="f32" offset="17708532" shape="128,512,1,1" size="262144"/>
			<output>
				<port id="1" precision="FP32">
					<dim>128</dim>
					<dim>512</dim>
					<dim>1</dim>
					<dim>1</dim>
				</port>
			</output>
		</layer>
		<layer id="285" name="Conv_167/WithoutBiases" type="Convolution" version="opset1">
			<data dilations="1,1" output_padding="0,0" pads_begin="0,0" pads_end="0,0" strides="1,1"/>
			<input>
				<port id="0">
					<dim>1</dim>
					<dim>512</dim>
					<dim>40</dim>
					<dim>40</dim>
				</port>
				<port id="1">
					<dim>128</dim>
					<dim>512</dim>
					<dim>1</dim>
					<dim>1</dim>
				</port>
			</input>
			<output>
				<port id="2" precision="FP32">
					<dim>1</dim>
					<dim>128</dim>
					<dim>40</dim>
					<dim>40</dim>
				</port>
			</output>
		</layer>
		<layer id="286" name="Conv_167/Dims5207/copy_const" type="Const" version="opset1">
			<data element_type="f32" offset="17970676" shape="1,128,1,1" size="512"/>
			<output>
				<port id="1" precision="FP32">
					<dim>1</dim>
					<dim>128</dim>
					<dim>1</dim>
					<dim>1</dim>
				</port>
			</output>
		</layer>
		<layer id="287" name="Conv_167" type="Add" version="opset1">
			<input>
				<port id="0">
					<dim>1</dim>
					<dim>128</dim>
					<dim>40</dim>
					<dim>40</dim>
				</port>
				<port id="1">
					<dim>1</dim>
					<dim>128</dim>
					<dim>1</dim>
					<dim>1</dim>
				</port>
			</input>
			<output>
				<port id="2" precision="FP32">
					<dim>1</dim>
					<dim>128</dim>
					<dim>40</dim>
					<dim>40</dim>
				</port>
			</output>
		</layer>
		<layer id="288" name="LeakyRelu_16813435/Cast_118976_const" type="Const" version="opset1">
			<data element_type="f32" offset="14176" shape="1" size="4"/>
			<output>
				<port id="1" precision="FP32">
					<dim>1</dim>
				</port>
			</output>
		</layer>
		<layer id="289" name="LeakyRelu_16813435" type="PReLU" version="opset1">
			<input>
				<port id="0">
					<dim>1</dim>
					<dim>128</dim>
					<dim>40</dim>
					<dim>40</dim>
				</port>
				<port id="1">
					<dim>1</dim>
				</port>
			</input>
			<output>
				<port id="2" precision="FP32">
					<dim>1</dim>
					<dim>128</dim>
					<dim>40</dim>
					<dim>40</dim>
				</port>
			</output>
		</layer>
		<layer id="290" name="onnx_initializer_node_model.13.m.0.cv1.conv.weight/Output_0/Data__const" type="Const" version="opset1">
			<data element_type="f32" offset="17971188" shape="128,128,1,1" size="65536"/>
			<output>
				<port id="1" precision="FP32">
					<dim>128</dim>
					<dim>128</dim>
					<dim>1</dim>
					<dim>1</dim>
				</port>
			</output>
		</layer>
		<layer id="291" name="Conv_169/WithoutBiases" type="Convolution" version="opset1">
			<data dilations="1,1" output_padding="0,0" pads_begin="0,0" pads_end="0,0" strides="1,1"/>
			<input>
				<port id="0">
					<dim>1</dim>
					<dim>128</dim>
					<dim>40</dim>
					<dim>40</dim>
				</port>
				<port id="1">
					<dim>128</dim>
					<dim>128</dim>
					<dim>1</dim>
					<dim>1</dim>
				</port>
			</input>
			<output>
				<port id="2" precision="FP32">
					<dim>1</dim>
					<dim>128</dim>
					<dim>40</dim>
					<dim>40</dim>
				</port>
			</output>
		</layer>
		<layer id="292" name="Conv_169/Dims5399/copy_const" type="Const" version="opset1">
			<data element_type="f32" offset="18036724" shape="1,128,1,1" size="512"/>
			<output>
				<port id="1" precision="FP32">
					<dim>1</dim>
					<dim>128</dim>
					<dim>1</dim>
					<dim>1</dim>
				</port>
			</output>
		</layer>
		<layer id="293" name="Conv_169" type="Add" version="opset1">
			<input>
				<port id="0">
					<dim>1</dim>
					<dim>128</dim>
					<dim>40</dim>
					<dim>40</dim>
				</port>
				<port id="1">
					<dim>1</dim>
					<dim>128</dim>
					<dim>1</dim>
					<dim>1</dim>
				</port>
			</input>
			<output>
				<port id="2" precision="FP32">
					<dim>1</dim>
					<dim>128</dim>
					<dim>40</dim>
					<dim>40</dim>
				</port>
			</output>
		</layer>
		<layer id="294" name="LeakyRelu_17013579/Cast_118958_const" type="Const" version="opset1">
			<data element_type="f32" offset="14176" shape="1" size="4"/>
			<output>
				<port id="1" precision="FP32">
					<dim>1</dim>
				</port>
			</output>
		</layer>
		<layer id="295" name="LeakyRelu_17013579" type="PReLU" version="opset1">
			<input>
				<port id="0">
					<dim>1</dim>
					<dim>128</dim>
					<dim>40</dim>
					<dim>40</dim>
				</port>
				<port id="1">
					<dim>1</dim>
				</port>
			</input>
			<output>
				<port id="2" precision="FP32">
					<dim>1</dim>
					<dim>128</dim>
					<dim>40</dim>
					<dim>40</dim>
				</port>
			</output>
		</layer>
		<layer id="296" name="onnx_initializer_node_model.13.m.0.cv2.conv.weight/Output_0/Data__const" type="Const" version="opset1">
			<data element_type="f32" offset="18037236" shape="128,128,3,3" size="589824"/>
			<output>
				<port id="1" precision="FP32">
					<dim>128</dim>
					<dim>128</dim>
					<dim>3</dim>
					<dim>3</dim>
				</port>
			</output>
		</layer>
		<layer id="297" name="Conv_171/WithoutBiases" type="Convolution" version="opset1">
			<data dilations="1,1" output_padding="0,0" pads_begin="1,1" pads_end="1,1" strides="1,1"/>
			<input>
				<port id="0">
					<dim>1</dim>
					<dim>128</dim>
					<dim>40</dim>
					<dim>40</dim>
				</port>
				<port id="1">
					<dim>128</dim>
					<dim>128</dim>
					<dim>3</dim>
					<dim>3</dim>
				</port>
			</input>
			<output>
				<port id="2" precision="FP32">
					<dim>1</dim>
					<dim>128</dim>
					<dim>40</dim>
					<dim>40</dim>
				</port>
			</output>
		</layer>
		<layer id="298" name="Conv_171/Dims5351/copy_const" type="Const" version="opset1">
			<data element_type="f32" offset="18627060" shape="1,128,1,1" size="512"/>
			<output>
				<port id="1" precision="FP32">
					<dim>1</dim>
					<dim>128</dim>
					<dim>1</dim>
					<dim>1</dim>
				</port>
			</output>
		</layer>
		<layer id="299" name="Conv_171" type="Add" version="opset1">
			<input>
				<port id="0">
					<dim>1</dim>
					<dim>128</dim>
					<dim>40</dim>
					<dim>40</dim>
				</port>
				<port id="1">
					<dim>1</dim>
					<dim>128</dim>
					<dim>1</dim>
					<dim>1</dim>
				</port>
			</input>
			<output>
				<port id="2" precision="FP32">
					<dim>1</dim>
					<dim>128</dim>
					<dim>40</dim>
					<dim>40</dim>
				</port>
			</output>
		</layer>
		<layer id="300" name="LeakyRelu_17213655/Cast_118974_const" type="Const" version="opset1">
			<data element_type="f32" offset="14176" shape="1" size="4"/>
			<output>
				<port id="1" precision="FP32">
					<dim>1</dim>
				</port>
			</output>
		</layer>
		<layer id="301" name="LeakyRelu_17213655" type="PReLU" version="opset1">
			<input>
				<port id="0">
					<dim>1</dim>
					<dim>128</dim>
					<dim>40</dim>
					<dim>40</dim>
				</port>
				<port id="1">
					<dim>1</dim>
				</port>
			</input>
			<output>
				<port id="2" precision="FP32">
					<dim>1</dim>
					<dim>128</dim>
					<dim>40</dim>
					<dim>40</dim>
				</port>
			</output>
		</layer>
		<layer id="302" name="onnx_initializer_node_model.13.cv3.weight/Output_0/Data__const" type="Const" version="opset1">
			<data element_type="f32" offset="18627572" shape="128,128,1,1" size="65536"/>
			<output>
				<port id="1" precision="FP32">
					<dim>128</dim>
					<dim>128</dim>
					<dim>1</dim>
					<dim>1</dim>
				</port>
			</output>
		</layer>
		<layer id="303" name="Conv_173" type="Convolution" version="opset1">
			<data dilations="1,1" output_padding="0,0" pads_begin="0,0" pads_end="0,0" strides="1,1"/>
			<input>
				<port id="0">
					<dim>1</dim>
					<dim>128</dim>
					<dim>40</dim>
					<dim>40</dim>
				</port>
				<port id="1">
					<dim>128</dim>
					<dim>128</dim>
					<dim>1</dim>
					<dim>1</dim>
				</port>
			</input>
			<output>
				<port id="2" precision="FP32">
					<dim>1</dim>
					<dim>128</dim>
					<dim>40</dim>
					<dim>40</dim>
				</port>
			</output>
		</layer>
		<layer id="304" name="onnx_initializer_node_model.13.cv2.weight/Output_0/Data__const" type="Const" version="opset1">
			<data element_type="f32" offset="18693108" shape="128,512,1,1" size="262144"/>
			<output>
				<port id="1" precision="FP32">
					<dim>128</dim>
					<dim>512</dim>
					<dim>1</dim>
					<dim>1</dim>
				</port>
			</output>
		</layer>
		<layer id="305" name="Conv_174" type="Convolution" version="opset1">
			<data dilations="1,1" output_padding="0,0" pads_begin="0,0" pads_end="0,0" strides="1,1"/>
			<input>
				<port id="0">
					<dim>1</dim>
					<dim>512</dim>
					<dim>40</dim>
					<dim>40</dim>
				</port>
				<port id="1">
					<dim>128</dim>
					<dim>512</dim>
					<dim>1</dim>
					<dim>1</dim>
				</port>
			</input>
			<output>
				<port id="2" precision="FP32">
					<dim>1</dim>
					<dim>128</dim>
					<dim>40</dim>
					<dim>40</dim>
				</port>
			</output>
		</layer>
		<layer id="306" name="Concat_175" type="Concat" version="opset1">
			<data axis="1"/>
			<input>
				<port id="0">
					<dim>1</dim>
					<dim>128</dim>
					<dim>40</dim>
					<dim>40</dim>
				</port>
				<port id="1">
					<dim>1</dim>
					<dim>128</dim>
					<dim>40</dim>
					<dim>40</dim>
				</port>
			</input>
			<output>
				<port id="2" precision="FP32">
					<dim>1</dim>
					<dim>256</dim>
					<dim>40</dim>
					<dim>40</dim>
				</port>
			</output>
		</layer>
		<layer id="307" name="data_mul_84008404/copy_const" type="Const" version="opset1">
			<data element_type="f32" offset="18955252" shape="1,256,1,1" size="1024"/>
			<output>
				<port id="1" precision="FP32">
					<dim>1</dim>
					<dim>256</dim>
					<dim>1</dim>
					<dim>1</dim>
				</port>
			</output>
		</layer>
		<layer id="308" name="BatchNormalization_176/mean/Fused_Mul_" type="Multiply" version="opset1">
			<input>
				<port id="0">
					<dim>1</dim>
					<dim>256</dim>
					<dim>40</dim>
					<dim>40</dim>
				</port>
				<port id="1">
					<dim>1</dim>
					<dim>256</dim>
					<dim>1</dim>
					<dim>1</dim>
				</port>
			</input>
			<output>
				<port id="2" precision="FP32">
					<dim>1</dim>
					<dim>256</dim>
					<dim>40</dim>
					<dim>40</dim>
				</port>
			</output>
		</layer>
		<layer id="309" name="data_add_84018406/copy_const" type="Const" version="opset1">
			<data element_type="f32" offset="18956276" shape="1,256,1,1" size="1024"/>
			<output>
				<port id="1" precision="FP32">
					<dim>1</dim>
					<dim>256</dim>
					<dim>1</dim>
					<dim>1</dim>
				</port>
			</output>
		</layer>
		<layer id="310" name="BatchNormalization_176/variance/Fused_Add_" type="Add" version="opset1">
			<input>
				<port id="0">
					<dim>1</dim>
					<dim>256</dim>
					<dim>40</dim>
					<dim>40</dim>
				</port>
				<port id="1">
					<dim>1</dim>
					<dim>256</dim>
					<dim>1</dim>
					<dim>1</dim>
				</port>
			</input>
			<output>
				<port id="2" precision="FP32">
					<dim>1</dim>
					<dim>256</dim>
					<dim>40</dim>
					<dim>40</dim>
				</port>
			</output>
		</layer>
		<layer id="311" name="LeakyRelu_17713495/Cast_118798_const" type="Const" version="opset1">
			<data element_type="f32" offset="14176" shape="1" size="4"/>
			<output>
				<port id="1" precision="FP32">
					<dim>1</dim>
				</port>
			</output>
		</layer>
		<layer id="312" name="LeakyRelu_17713495" type="PReLU" version="opset1">
			<input>
				<port id="0">
					<dim>1</dim>
					<dim>256</dim>
					<dim>40</dim>
					<dim>40</dim>
				</port>
				<port id="1">
					<dim>1</dim>
				</port>
			</input>
			<output>
				<port id="2" precision="FP32">
					<dim>1</dim>
					<dim>256</dim>
					<dim>40</dim>
					<dim>40</dim>
				</port>
			</output>
		</layer>
		<layer id="313" name="onnx_initializer_node_model.13.cv4.conv.weight/Output_0/Data__const" type="Const" version="opset1">
			<data element_type="f32" offset="18957300" shape="256,256,1,1" size="262144"/>
			<output>
				<port id="1" precision="FP32">
					<dim>256</dim>
					<dim>256</dim>
					<dim>1</dim>
					<dim>1</dim>
				</port>
			</output>
		</layer>
		<layer id="314" name="Conv_178/WithoutBiases" type="Convolution" version="opset1">
			<data dilations="1,1" output_padding="0,0" pads_begin="0,0" pads_end="0,0" strides="1,1"/>
			<input>
				<port id="0">
					<dim>1</dim>
					<dim>256</dim>
					<dim>40</dim>
					<dim>40</dim>
				</port>
				<port id="1">
					<dim>256</dim>
					<dim>256</dim>
					<dim>1</dim>
					<dim>1</dim>
				</port>
			</input>
			<output>
				<port id="2" precision="FP32">
					<dim>1</dim>
					<dim>256</dim>
					<dim>40</dim>
					<dim>40</dim>
				</port>
			</output>
		</layer>
		<layer id="315" name="Conv_178/Dims5285/copy_const" type="Const" version="opset1">
			<data element_type="f32" offset="19219444" shape="1,256,1,1" size="1024"/>
			<output>
				<port id="1" precision="FP32">
					<dim>1</dim>
					<dim>256</dim>
					<dim>1</dim>
					<dim>1</dim>
				</port>
			</output>
		</layer>
		<layer id="316" name="Conv_178" type="Add" version="opset1">
			<input>
				<port id="0">
					<dim>1</dim>
					<dim>256</dim>
					<dim>40</dim>
					<dim>40</dim>
				</port>
				<port id="1">
					<dim>1</dim>
					<dim>256</dim>
					<dim>1</dim>
					<dim>1</dim>
				</port>
			</input>
			<output>
				<port id="2" precision="FP32">
					<dim>1</dim>
					<dim>256</dim>
					<dim>40</dim>
					<dim>40</dim>
				</port>
			</output>
		</layer>
		<layer id="317" name="LeakyRelu_17913491/Cast_118920_const" type="Const" version="opset1">
			<data element_type="f32" offset="14176" shape="1" size="4"/>
			<output>
				<port id="1" precision="FP32">
					<dim>1</dim>
				</port>
			</output>
		</layer>
		<layer id="318" name="LeakyRelu_17913491" type="PReLU" version="opset1">
			<input>
				<port id="0">
					<dim>1</dim>
					<dim>256</dim>
					<dim>40</dim>
					<dim>40</dim>
				</port>
				<port id="1">
					<dim>1</dim>
				</port>
			</input>
			<output>
				<port id="2" precision="FP32">
					<dim>1</dim>
					<dim>256</dim>
					<dim>40</dim>
					<dim>40</dim>
				</port>
			</output>
		</layer>
		<layer id="319" name="onnx_initializer_node_model.14.conv.weight/Output_0/Data__const" type="Const" version="opset1">
			<data element_type="f32" offset="19220468" shape="128,256,1,1" size="131072"/>
			<output>
				<port id="1" precision="FP32">
					<dim>128</dim>
					<dim>256</dim>
					<dim>1</dim>
					<dim>1</dim>
				</port>
			</output>
		</layer>
		<layer id="320" name="Conv_180/WithoutBiases" type="Convolution" version="opset1">
			<data dilations="1,1" output_padding="0,0" pads_begin="0,0" pads_end="0,0" strides="1,1"/>
			<input>
				<port id="0">
					<dim>1</dim>
					<dim>256</dim>
					<dim>40</dim>
					<dim>40</dim>
				</port>
				<port id="1">
					<dim>128</dim>
					<dim>256</dim>
					<dim>1</dim>
					<dim>1</dim>
				</port>
			</input>
			<output>
				<port id="2" precision="FP32">
					<dim>1</dim>
					<dim>128</dim>
					<dim>40</dim>
					<dim>40</dim>
				</port>
			</output>
		</layer>
		<layer id="321" name="Conv_180/Dims5441/copy_const" type="Const" version="opset1">
			<data element_type="f32" offset="19351540" shape="1,128,1,1" size="512"/>
			<output>
				<port id="1" precision="FP32">
					<dim>1</dim>
					<dim>128</dim>
					<dim>1</dim>
					<dim>1</dim>
				</port>
			</output>
		</layer>
		<layer id="322" name="Conv_180" type="Add" version="opset1">
			<input>
				<port id="0">
					<dim>1</dim>
					<dim>128</dim>
					<dim>40</dim>
					<dim>40</dim>
				</port>
				<port id="1">
					<dim>1</dim>
					<dim>128</dim>
					<dim>1</dim>
					<dim>1</dim>
				</port>
			</input>
			<output>
				<port id="2" precision="FP32">
					<dim>1</dim>
					<dim>128</dim>
					<dim>40</dim>
					<dim>40</dim>
				</port>
			</output>
		</layer>
		<layer id="323" name="LeakyRelu_18113531/Cast_118942_const" type="Const" version="opset1">
			<data element_type="f32" offset="14176" shape="1" size="4"/>
			<output>
				<port id="1" precision="FP32">
					<dim>1</dim>
				</port>
			</output>
		</layer>
		<layer id="324" name="LeakyRelu_18113531" type="PReLU" version="opset1">
			<input>
				<port id="0">
					<dim>1</dim>
					<dim>128</dim>
					<dim>40</dim>
					<dim>40</dim>
				</port>
				<port id="1">
					<dim>1</dim>
				</port>
			</input>
			<output>
				<port id="2" precision="FP32">
					<dim>1</dim>
					<dim>128</dim>
					<dim>40</dim>
					<dim>40</dim>
				</port>
			</output>
		</layer>
		<layer id="325" name="Interpolate/Resize_211/Cast_118802_const" type="Const" version="opset1">
			<data element_type="i64" offset="19352052" shape="2" size="16"/>
			<output>
				<port id="1" precision="I64">
					<dim>2</dim>
				</port>
			</output>
		</layer>
		<layer id="326" name="Interpolate/Resize_211" type="Interpolate" version="opset1">
			<data align_corners="0" antialias="0" axes="2,3" mode="nearest" pads_begin="0" pads_end="0"/>
			<input>
				<port id="0">
					<dim>1</dim>
					<dim>128</dim>
					<dim>40</dim>
					<dim>40</dim>
				</port>
				<port id="1">
					<dim>2</dim>
				</port>
			</input>
			<output>
				<port id="2" precision="FP32">
					<dim>1</dim>
					<dim>128</dim>
					<dim>80</dim>
					<dim>80</dim>
				</port>
			</output>
		</layer>
		<layer id="327" name="Concat_212" type="Concat" version="opset1">
			<data axis="1"/>
			<input>
				<port id="0">
					<dim>1</dim>
					<dim>128</dim>
					<dim>80</dim>
					<dim>80</dim>
				</port>
				<port id="1">
					<dim>1</dim>
					<dim>128</dim>
					<dim>80</dim>
					<dim>80</dim>
				</port>
			</input>
			<output>
				<port id="2" precision="FP32">
					<dim>1</dim>
					<dim>256</dim>
					<dim>80</dim>
					<dim>80</dim>
				</port>
			</output>
		</layer>
		<layer id="328" name="onnx_initializer_node_model.17.cv1.conv.weight/Output_0/Data__const" type="Const" version="opset1">
			<data element_type="f32" offset="19352068" shape="64,256,1,1" size="65536"/>
			<output>
				<port id="1" precision="FP32">
					<dim>64</dim>
					<dim>256</dim>
					<dim>1</dim>
					<dim>1</dim>
				</port>
			</output>
		</layer>
		<layer id="329" name="Conv_213/WithoutBiases" type="Convolution" version="opset1">
			<data dilations="1,1" output_padding="0,0" pads_begin="0,0" pads_end="0,0" strides="1,1"/>
			<input>
				<port id="0">
					<dim>1</dim>
					<dim>256</dim>
					<dim>80</dim>
					<dim>80</dim>
				</port>
				<port id="1">
					<dim>64</dim>
					<dim>256</dim>
					<dim>1</dim>
					<dim>1</dim>
				</port>
			</input>
			<output>
				<port id="2" precision="FP32">
					<dim>1</dim>
					<dim>64</dim>
					<dim>80</dim>
					<dim>80</dim>
				</port>
			</output>
		</layer>
		<layer id="330" name="Conv_213/Dims5375/copy_const" type="Const" version="opset1">
			<data element_type="f32" offset="19417604" shape="1,64,1,1" size="256"/>
			<output>
				<port id="1" precision="FP32">
					<dim>1</dim>
					<dim>64</dim>
					<dim>1</dim>
					<dim>1</dim>
				</port>
			</output>
		</layer>
		<layer id="331" name="Conv_213" type="Add" version="opset1">
			<input>
				<port id="0">
					<dim>1</dim>
					<dim>64</dim>
					<dim>80</dim>
					<dim>80</dim>
				</port>
				<port id="1">
					<dim>1</dim>
					<dim>64</dim>
					<dim>1</dim>
					<dim>1</dim>
				</port>
			</input>
			<output>
				<port id="2" precision="FP32">
					<dim>1</dim>
					<dim>64</dim>
					<dim>80</dim>
					<dim>80</dim>
				</port>
			</output>
		</layer>
		<layer id="332" name="LeakyRelu_21413587/Cast_118844_const" type="Const" version="opset1">
			<data element_type="f32" offset="14176" shape="1" size="4"/>
			<output>
				<port id="1" precision="FP32">
					<dim>1</dim>
				</port>
			</output>
		</layer>
		<layer id="333" name="LeakyRelu_21413587" type="PReLU" version="opset1">
			<input>
				<port id="0">
					<dim>1</dim>
					<dim>64</dim>
					<dim>80</dim>
					<dim>80</dim>
				</port>
				<port id="1">
					<dim>1</dim>
				</port>
			</input>
			<output>
				<port id="2" precision="FP32">
					<dim>1</dim>
					<dim>64</dim>
					<dim>80</dim>
					<dim>80</dim>
				</port>
			</output>
		</layer>
		<layer id="334" name="onnx_initializer_node_model.17.m.0.cv1.conv.weight/Output_0/Data__const" type="Const" version="opset1">
			<data element_type="f32" offset="19417860" shape="64,64,1,1" size="16384"/>
			<output>
				<port id="1" precision="FP32">
					<dim>64</dim>
					<dim>64</dim>
					<dim>1</dim>
					<dim>1</dim>
				</port>
			</output>
		</layer>
		<layer id="335" name="Conv_215/WithoutBiases" type="Convolution" version="opset1">
			<data dilations="1,1" output_padding="0,0" pads_begin="0,0" pads_end="0,0" strides="1,1"/>
			<input>
				<port id="0">
					<dim>1</dim>
					<dim>64</dim>
					<dim>80</dim>
					<dim>80</dim>
				</port>
				<port id="1">
					<dim>64</dim>
					<dim>64</dim>
					<dim>1</dim>
					<dim>1</dim>
				</port>
			</input>
			<output>
				<port id="2" precision="FP32">
					<dim>1</dim>
					<dim>64</dim>
					<dim>80</dim>
					<dim>80</dim>
				</port>
			</output>
		</layer>
		<layer id="336" name="Conv_215/Dims5159/copy_const" type="Const" version="opset1">
			<data element_type="f32" offset="19434244" shape="1,64,1,1" size="256"/>
			<output>
				<port id="1" precision="FP32">
					<dim>1</dim>
					<dim>64</dim>
					<dim>1</dim>
					<dim>1</dim>
				</port>
			</output>
		</layer>
		<layer id="337" name="Conv_215" type="Add" version="opset1">
			<input>
				<port id="0">
					<dim>1</dim>
					<dim>64</dim>
					<dim>80</dim>
					<dim>80</dim>
				</port>
				<port id="1">
					<dim>1</dim>
					<dim>64</dim>
					<dim>1</dim>
					<dim>1</dim>
				</port>
			</input>
			<output>
				<port id="2" precision="FP32">
					<dim>1</dim>
					<dim>64</dim>
					<dim>80</dim>
					<dim>80</dim>
				</port>
			</output>
		</layer>
		<layer id="338" name="LeakyRelu_21613611/Cast_118810_const" type="Const" version="opset1">
			<data element_type="f32" offset="14176" shape="1" size="4"/>
			<output>
				<port id="1" precision="FP32">
					<dim>1</dim>
				</port>
			</output>
		</layer>
		<layer id="339" name="LeakyRelu_21613611" type="PReLU" version="opset1">
			<input>
				<port id="0">
					<dim>1</dim>
					<dim>64</dim>
					<dim>80</dim>
					<dim>80</dim>
				</port>
				<port id="1">
					<dim>1</dim>
				</port>
			</input>
			<output>
				<port id="2" precision="FP32">
					<dim>1</dim>
					<dim>64</dim>
					<dim>80</dim>
					<dim>80</dim>
				</port>
			</output>
		</layer>
		<layer id="340" name="onnx_initializer_node_model.17.m.0.cv2.conv.weight/Output_0/Data__const" type="Const" version="opset1">
			<data element_type="f32" offset="19434500" shape="64,64,3,3" size="147456"/>
			<output>
				<port id="1" precision="FP32">
					<dim>64</dim>
					<dim>64</dim>
					<dim>3</dim>
					<dim>3</dim>
				</port>
			</output>
		</layer>
		<layer id="341" name="Conv_217/WithoutBiases" type="Convolution" version="opset1">
			<data dilations="1,1" output_padding="0,0" pads_begin="1,1" pads_end="1,1" strides="1,1"/>
			<input>
				<port id="0">
					<dim>1</dim>
					<dim>64</dim>
					<dim>80</dim>
					<dim>80</dim>
				</port>
				<port id="1">
					<dim>64</dim>
					<dim>64</dim>
					<dim>3</dim>
					<dim>3</dim>
				</port>
			</input>
			<output>
				<port id="2" precision="FP32">
					<dim>1</dim>
					<dim>64</dim>
					<dim>80</dim>
					<dim>80</dim>
				</port>
			</output>
		</layer>
		<layer id="342" name="Conv_217/Dims5153/copy_const" type="Const" version="opset1">
			<data element_type="f32" offset="19581956" shape="1,64,1,1" size="256"/>
			<output>
				<port id="1" precision="FP32">
					<dim>1</dim>
					<dim>64</dim>
					<dim>1</dim>
					<dim>1</dim>
				</port>
			</output>
		</layer>
		<layer id="343" name="Conv_217" type="Add" version="opset1">
			<input>
				<port id="0">
					<dim>1</dim>
					<dim>64</dim>
					<dim>80</dim>
					<dim>80</dim>
				</port>
				<port id="1">
					<dim>1</dim>
					<dim>64</dim>
					<dim>1</dim>
					<dim>1</dim>
				</port>
			</input>
			<output>
				<port id="2" precision="FP32">
					<dim>1</dim>
					<dim>64</dim>
					<dim>80</dim>
					<dim>80</dim>
				</port>
			</output>
		</layer>
		<layer id="344" name="LeakyRelu_21813475/Cast_118922_const" type="Const" version="opset1">
			<data element_type="f32" offset="14176" shape="1" size="4"/>
			<output>
				<port id="1" precision="FP32">
					<dim>1</dim>
				</port>
			</output>
		</layer>
		<layer id="345" name="LeakyRelu_21813475" type="PReLU" version="opset1">
			<input>
				<port id="0">
					<dim>1</dim>
					<dim>64</dim>
					<dim>80</dim>
					<dim>80</dim>
				</port>
				<port id="1">
					<dim>1</dim>
				</port>
			</input>
			<output>
				<port id="2" precision="FP32">
					<dim>1</dim>
					<dim>64</dim>
					<dim>80</dim>
					<dim>80</dim>
				</port>
			</output>
		</layer>
		<layer id="346" name="onnx_initializer_node_model.17.cv3.weight/Output_0/Data__const" type="Const" version="opset1">
			<data element_type="f32" offset="19582212" shape="64,64,1,1" size="16384"/>
			<output>
				<port id="1" precision="FP32">
					<dim>64</dim>
					<dim>64</dim>
					<dim>1</dim>
					<dim>1</dim>
				</port>
			</output>
		</layer>
		<layer id="347" name="Conv_219" type="Convolution" version="opset1">
			<data dilations="1,1" output_padding="0,0" pads_begin="0,0" pads_end="0,0" strides="1,1"/>
			<input>
				<port id="0">
					<dim>1</dim>
					<dim>64</dim>
					<dim>80</dim>
					<dim>80</dim>
				</port>
				<port id="1">
					<dim>64</dim>
					<dim>64</dim>
					<dim>1</dim>
					<dim>1</dim>
				</port>
			</input>
			<output>
				<port id="2" precision="FP32">
					<dim>1</dim>
					<dim>64</dim>
					<dim>80</dim>
					<dim>80</dim>
				</port>
			</output>
		</layer>
		<layer id="348" name="onnx_initializer_node_model.17.cv2.weight/Output_0/Data__const" type="Const" version="opset1">
			<data element_type="f32" offset="19598596" shape="64,256,1,1" size="65536"/>
			<output>
				<port id="1" precision="FP32">
					<dim>64</dim>
					<dim>256</dim>
					<dim>1</dim>
					<dim>1</dim>
				</port>
			</output>
		</layer>
		<layer id="349" name="Conv_220" type="Convolution" version="opset1">
			<data dilations="1,1" output_padding="0,0" pads_begin="0,0" pads_end="0,0" strides="1,1"/>
			<input>
				<port id="0">
					<dim>1</dim>
					<dim>256</dim>
					<dim>80</dim>
					<dim>80</dim>
				</port>
				<port id="1">
					<dim>64</dim>
					<dim>256</dim>
					<dim>1</dim>
					<dim>1</dim>
				</port>
			</input>
			<output>
				<port id="2" precision="FP32">
					<dim>1</dim>
					<dim>64</dim>
					<dim>80</dim>
					<dim>80</dim>
				</port>
			</output>
		</layer>
		<layer id="350" name="Concat_221" type="Concat" version="opset1">
			<data axis="1"/>
			<input>
				<port id="0">
					<dim>1</dim>
					<dim>64</dim>
					<dim>80</dim>
					<dim>80</dim>
				</port>
				<port id="1">
					<dim>1</dim>
					<dim>64</dim>
					<dim>80</dim>
					<dim>80</dim>
				</port>
			</input>
			<output>
				<port id="2" precision="FP32">
					<dim>1</dim>
					<dim>128</dim>
					<dim>80</dim>
					<dim>80</dim>
				</port>
			</output>
		</layer>
		<layer id="351" name="data_mul_84088412/copy_const" type="Const" version="opset1">
			<data element_type="f32" offset="19664132" shape="1,128,1,1" size="512"/>
			<output>
				<port id="1" precision="FP32">
					<dim>1</dim>
					<dim>128</dim>
					<dim>1</dim>
					<dim>1</dim>
				</port>
			</output>
		</layer>
		<layer id="352" name="BatchNormalization_222/mean/Fused_Mul_" type="Multiply" version="opset1">
			<input>
				<port id="0">
					<dim>1</dim>
					<dim>128</dim>
					<dim>80</dim>
					<dim>80</dim>
				</port>
				<port id="1">
					<dim>1</dim>
					<dim>128</dim>
					<dim>1</dim>
					<dim>1</dim>
				</port>
			</input>
			<output>
				<port id="2" precision="FP32">
					<dim>1</dim>
					<dim>128</dim>
					<dim>80</dim>
					<dim>80</dim>
				</port>
			</output>
		</layer>
		<layer id="353" name="data_add_84098414/copy_const" type="Const" version="opset1">
			<data element_type="f32" offset="19664644" shape="1,128,1,1" size="512"/>
			<output>
				<port id="1" precision="FP32">
					<dim>1</dim>
					<dim>128</dim>
					<dim>1</dim>
					<dim>1</dim>
				</port>
			</output>
		</layer>
		<layer id="354" name="BatchNormalization_222/variance/Fused_Add_" type="Add" version="opset1">
			<input>
				<port id="0">
					<dim>1</dim>
					<dim>128</dim>
					<dim>80</dim>
					<dim>80</dim>
				</port>
				<port id="1">
					<dim>1</dim>
					<dim>128</dim>
					<dim>1</dim>
					<dim>1</dim>
				</port>
			</input>
			<output>
				<port id="2" precision="FP32">
					<dim>1</dim>
					<dim>128</dim>
					<dim>80</dim>
					<dim>80</dim>
				</port>
			</output>
		</layer>
		<layer id="355" name="LeakyRelu_22313623/Cast_118902_const" type="Const" version="opset1">
			<data element_type="f32" offset="14176" shape="1" size="4"/>
			<output>
				<port id="1" precision="FP32">
					<dim>1</dim>
				</port>
			</output>
		</layer>
		<layer id="356" name="LeakyRelu_22313623" type="PReLU" version="opset1">
			<input>
				<port id="0">
					<dim>1</dim>
					<dim>128</dim>
					<dim>80</dim>
					<dim>80</dim>
				</port>
				<port id="1">
					<dim>1</dim>
				</port>
			</input>
			<output>
				<port id="2" precision="FP32">
					<dim>1</dim>
					<dim>128</dim>
					<dim>80</dim>
					<dim>80</dim>
				</port>
			</output>
		</layer>
		<layer id="357" name="onnx_initializer_node_model.17.cv4.conv.weight/Output_0/Data__const" type="Const" version="opset1">
			<data element_type="f32" offset="19665156" shape="128,128,1,1" size="65536"/>
			<output>
				<port id="1" precision="FP32">
					<dim>128</dim>
					<dim>128</dim>
					<dim>1</dim>
					<dim>1</dim>
				</port>
			</output>
		</layer>
		<layer id="358" name="Conv_224/WithoutBiases" type="Convolution" version="opset1">
			<data dilations="1,1" output_padding="0,0" pads_begin="0,0" pads_end="0,0" strides="1,1"/>
			<input>
				<port id="0">
					<dim>1</dim>
					<dim>128</dim>
					<dim>80</dim>
					<dim>80</dim>
				</port>
				<port id="1">
					<dim>128</dim>
					<dim>128</dim>
					<dim>1</dim>
					<dim>1</dim>
				</port>
			</input>
			<output>
				<port id="2" precision="FP32">
					<dim>1</dim>
					<dim>128</dim>
					<dim>80</dim>
					<dim>80</dim>
				</port>
			</output>
		</layer>
		<layer id="359" name="Conv_224/Dims5279/copy_const" type="Const" version="opset1">
			<data element_type="f32" offset="19730692" shape="1,128,1,1" size="512"/>
			<output>
				<port id="1" precision="FP32">
					<dim>1</dim>
					<dim>128</dim>
					<dim>1</dim>
					<dim>1</dim>
				</port>
			</output>
		</layer>
		<layer id="360" name="Conv_224" type="Add" version="opset1">
			<input>
				<port id="0">
					<dim>1</dim>
					<dim>128</dim>
					<dim>80</dim>
					<dim>80</dim>
				</port>
				<port id="1">
					<dim>1</dim>
					<dim>128</dim>
					<dim>1</dim>
					<dim>1</dim>
				</port>
			</input>
			<output>
				<port id="2" precision="FP32">
					<dim>1</dim>
					<dim>128</dim>
					<dim>80</dim>
					<dim>80</dim>
				</port>
			</output>
		</layer>
		<layer id="361" name="LeakyRelu_22513567/Cast_118754_const" type="Const" version="opset1">
			<data element_type="f32" offset="14176" shape="1" size="4"/>
			<output>
				<port id="1" precision="FP32">
					<dim>1</dim>
				</port>
			</output>
		</layer>
		<layer id="362" name="LeakyRelu_22513567" type="PReLU" version="opset1">
			<input>
				<port id="0">
					<dim>1</dim>
					<dim>128</dim>
					<dim>80</dim>
					<dim>80</dim>
				</port>
				<port id="1">
					<dim>1</dim>
				</port>
			</input>
			<output>
				<port id="2" precision="FP32">
					<dim>1</dim>
					<dim>128</dim>
					<dim>80</dim>
					<dim>80</dim>
				</port>
			</output>
		</layer>
		<layer id="363" name="onnx_initializer_node_model.24.m.0.weight/Output_0/Data__const" type="Const" version="opset1">
			<data element_type="f32" offset="19731204" shape="255,128,1,1" size="130560"/>
			<output>
				<port id="1" precision="FP32">
					<dim>255</dim>
					<dim>128</dim>
					<dim>1</dim>
					<dim>1</dim>
				</port>
			</output>
		</layer>
		<layer id="364" name="Conv_258/WithoutBiases" type="Convolution" version="opset1">
			<data dilations="1,1" output_padding="0,0" pads_begin="0,0" pads_end="0,0" strides="1,1"/>
			<input>
				<port id="0">
					<dim>1</dim>
					<dim>128</dim>
					<dim>80</dim>
					<dim>80</dim>
				</port>
				<port id="1">
					<dim>255</dim>
					<dim>128</dim>
					<dim>1</dim>
					<dim>1</dim>
				</port>
			</input>
			<output>
				<port id="2" precision="FP32">
					<dim>1</dim>
					<dim>255</dim>
					<dim>80</dim>
					<dim>80</dim>
				</port>
			</output>
		</layer>
		<layer id="365" name="Conv_258/Dims5471/copy_const" type="Const" version="opset1">
			<data element_type="f32" offset="19861764" shape="1,255,1,1" size="1020"/>
			<output>
				<port id="1" precision="FP32">
					<dim>1</dim>
					<dim>255</dim>
					<dim>1</dim>
					<dim>1</dim>
				</port>
			</output>
		</layer>
		<layer id="366" name="Conv_258" type="Add" version="opset1">
			<input>
				<port id="0">
					<dim>1</dim>
					<dim>255</dim>
					<dim>80</dim>
					<dim>80</dim>
				</port>
				<port id="1">
					<dim>1</dim>
					<dim>255</dim>
					<dim>1</dim>
					<dim>1</dim>
				</port>
			</input>
			<output>
				<port id="2" precision="FP32">
					<dim>1</dim>
					<dim>255</dim>
					<dim>80</dim>
					<dim>80</dim>
				</port>
			</output>
		</layer>
		<layer id="367" name="Reshape_272/Cast_118766_const" type="Const" version="opset1">
			<data element_type="i64" offset="19862784" shape="5" size="40"/>
			<output>
				<port id="1" precision="I64">
					<dim>5</dim>
				</port>
			</output>
		</layer>
		<layer id="368" name="Reshape_272" type="Reshape" version="opset1">
			<data special_zero="True"/>
			<input>
				<port id="0">
					<dim>1</dim>
					<dim>255</dim>
					<dim>80</dim>
					<dim>80</dim>
				</port>
				<port id="1">
					<dim>5</dim>
				</port>
			</input>
			<output>
				<port id="2" precision="FP32">
					<dim>1</dim>
					<dim>3</dim>
					<dim>85</dim>
					<dim>80</dim>
					<dim>80</dim>
				</port>
			</output>
		</layer>
		<layer id="369" name="Transpose_273/Cast_118858_const" type="Const" version="opset1">
			<data element_type="i64" offset="19862824" shape="5" size="40"/>
			<output>
				<port id="1" precision="I64">
					<dim>5</dim>
				</port>
			</output>
		</layer>
		<layer id="370" name="Transpose_273" type="Transpose" version="opset1">
			<input>
				<port id="0">
					<dim>1</dim>
					<dim>3</dim>
					<dim>85</dim>
					<dim>80</dim>
					<dim>80</dim>
				</port>
				<port id="1">
					<dim>5</dim>
				</port>
			</input>
			<output>
				<port id="2" precision="FP32">
					<dim>1</dim>
					<dim>3</dim>
					<dim>80</dim>
					<dim>80</dim>
					<dim>85</dim>
				</port>
			</output>
		</layer>
		<layer id="371" name="Sigmoid_274" type="Sigmoid" version="opset1">
			<input>
				<port id="0">
					<dim>1</dim>
					<dim>3</dim>
					<dim>80</dim>
					<dim>80</dim>
					<dim>85</dim>
				</port>
			</input>
			<output>
				<port id="1" precision="FP32">
					<dim>1</dim>
					<dim>3</dim>
					<dim>80</dim>
					<dim>80</dim>
					<dim>85</dim>
				</port>
			</output>
		</layer>
		<layer id="372" name="Slice_279/Cast_118746_const" type="Const" version="opset1">
			<data element_type="i64" offset="19862864" shape="5" size="40"/>
			<output>
				<port id="1" precision="I64">
					<dim>5</dim>
				</port>
			</output>
		</layer>
		<layer id="373" name="Slice_279/Cast_218748_const" type="Const" version="opset1">
			<data element_type="i64" offset="19862904" shape="5" size="40"/>
			<output>
				<port id="1" precision="I64">
					<dim>5</dim>
				</port>
			</output>
		</layer>
		<layer id="374" name="Slice_279/Cast_318750_const" type="Const" version="opset1">
			<data element_type="i64" offset="19862944" shape="5" size="40"/>
			<output>
				<port id="1" precision="I64">
					<dim>5</dim>
				</port>
			</output>
		</layer>
		<layer id="375" name="Slice_279" type="StridedSlice" version="opset1">
			<data begin_mask="1,1,1,1,1" ellipsis_mask="0,0,0,0,0" end_mask="1,1,1,1,0" new_axis_mask="0,0,0,0,0" shrink_axis_mask="0,0,0,0,0"/>
			<input>
				<port id="0">
					<dim>1</dim>
					<dim>3</dim>
					<dim>80</dim>
					<dim>80</dim>
					<dim>85</dim>
				</port>
				<port id="1">
					<dim>5</dim>
				</port>
				<port id="2">
					<dim>5</dim>
				</port>
				<port id="3">
					<dim>5</dim>
				</port>
			</input>
			<output>
				<port id="4" precision="FP32">
					<dim>1</dim>
					<dim>3</dim>
					<dim>80</dim>
					<dim>80</dim>
					<dim>2</dim>
				</port>
			</output>
		</layer>
		<layer id="376" name="Constant_280/Output_0/Data_/copy_const" type="Const" version="opset1">
			<data element_type="f32" offset="19862984" shape="1,1,1,1,1" size="4"/>
			<output>
				<port id="1" precision="FP32">
					<dim>1</dim>
					<dim>1</dim>
					<dim>1</dim>
					<dim>1</dim>
					<dim>1</dim>
				</port>
			</output>
		</layer>
		<layer id="377" name="Mul_281" type="Multiply" version="opset1">
			<input>
				<port id="0">
					<dim>1</dim>
					<dim>3</dim>
					<dim>80</dim>
					<dim>80</dim>
					<dim>2</dim>
				</port>
				<port id="1">
					<dim>1</dim>
					<dim>1</dim>
					<dim>1</dim>
…
				<port id="2" precision="FP32">
					<dim>1</dim>
					<dim>3</dim>
					<dim>20</dim>
					<dim>20</dim>
					<dim>2</dim>
				</port>
			</output>
		</layer>
		<layer id="544" name="Slice_392/Cast_118894_const" type="Const" version="opset1">
			<data element_type="i64" offset="19862904" shape="5" size="40"/>
			<output>
				<port id="1" precision="I64">
					<dim>5</dim>
				</port>
			</output>
		</layer>
		<layer id="545" name="Slice_392/Cast_218896_const" type="Const" version="opset1">
			<data element_type="i64" offset="19914196" shape="5" size="40"/>
			<output>
				<port id="1" precision="I64">
					<dim>5</dim>
				</port>
			</output>
		</layer>
		<layer id="546" name="Slice_392/Cast_318898_const" type="Const" version="opset1">
			<data element_type="i64" offset="19862944" shape="5" size="40"/>
			<output>
				<port id="1" precision="I64">
					<dim>5</dim>
				</port>
			</output>
		</layer>
		<layer id="547" name="Slice_392" type="StridedSlice" version="opset1">
			<data begin_mask="1,1,1,1,0" ellipsis_mask="0,0,0,0,0" end_mask="1,1,1,1,0" new_axis_mask="0,0,0,0,0" shrink_axis_mask="0,0,0,0,0"/>
			<input>
				<port id="0">
					<dim>1</dim>
					<dim>3</dim>
					<dim>20</dim>
					<dim>20</dim>
					<dim>85</dim>
				</port>
				<port id="1">
					<dim>5</dim>
				</port>
				<port id="2">
					<dim>5</dim>
				</port>
				<port id="3">
					<dim>5</dim>
				</port>
			</input>
			<output>
				<port id="4" precision="FP32">
					<dim>1</dim>
					<dim>3</dim>
					<dim>20</dim>
					<dim>20</dim>
					<dim>2</dim>
				</port>
			</output>
		</layer>
		<layer id="548" name="Constant_393/Output_0/Data_/copy_const" type="Const" version="opset1">
			<data element_type="f32" offset="19862984" shape="1,1,1,1,1" size="4"/>
			<output>
				<port id="1" precision="FP32">
					<dim>1</dim>
					<dim>1</dim>
					<dim>1</dim>
					<dim>1</dim>
					<dim>1</dim>
				</port>
			</output>
		</layer>
		<layer id="549" name="Mul_394" type="Multiply" version="opset1">
			<input>
				<port id="0">
					<dim>1</dim>
					<dim>3</dim>
					<dim>20</dim>
					<dim>20</dim>
					<dim>2</dim>
				</port>
				<port id="1">
					<dim>1</dim>
					<dim>1</dim>
					<dim>1</dim>
					<dim>1</dim>
					<dim>1</dim>
				</port>
			</input>
			<output>
				<port id="2" precision="FP32">
					<dim>1</dim>
					<dim>3</dim>
					<dim>20</dim>
					<dim>20</dim>
					<dim>2</dim>
				</port>
			</output>
		</layer>
		<layer id="550" name="onnx_initializer_node_618/Output_0/Data_/copy_const" type="Const" version="opset1">
			<data element_type="f32" offset="19862984" shape="1,1,1,1,1" size="4"/>
			<output>
				<port id="1" precision="FP32">
					<dim>1</dim>
					<dim>1</dim>
					<dim>1</dim>
					<dim>1</dim>
					<dim>1</dim>
				</port>
			</output>
		</layer>
		<layer id="551" name="Pow_395" type="Power" version="opset1">
			<input>
				<port id="0">
					<dim>1</dim>
					<dim>3</dim>
					<dim>20</dim>
					<dim>20</dim>
					<dim>2</dim>
				</port>
				<port id="1">
					<dim>1</dim>
					<dim>1</dim>
					<dim>1</dim>
					<dim>1</dim>
					<dim>1</dim>
				</port>
			</input>
			<output>
				<port id="2" precision="FP32">
					<dim>1</dim>
					<dim>3</dim>
					<dim>20</dim>
					<dim>20</dim>
					<dim>2</dim>
				</port>
			</output>
		</layer>
		<layer id="552" name="Gather_397642/Output_0/Data__const" type="Const" version="opset1">
			<data element_type="f32" offset="29906236" shape="1,3,1,1,2" size="24"/>
			<output>
				<port id="1" precision="FP32">
					<dim>1</dim>
					<dim>3</dim>
					<dim>1</dim>
					<dim>1</dim>
					<dim>2</dim>
				</port>
			</output>
		</layer>
		<layer id="553" name="Mul_398" type="Multiply" version="opset1">
			<input>
				<port id="0">
					<dim>1</dim>
					<dim>3</dim>
					<dim>20</dim>
					<dim>20</dim>
					<dim>2</dim>
				</port>
				<port id="1">
					<dim>1</dim>
					<dim>3</dim>
					<dim>1</dim>
					<dim>1</dim>
					<dim>2</dim>
				</port>
			</input>
			<output>
				<port id="2" precision="FP32">
					<dim>1</dim>
					<dim>3</dim>
					<dim>20</dim>
					<dim>20</dim>
					<dim>2</dim>
				</port>
			</output>
		</layer>
		<layer id="554" name="Slice_403/Cast_118948_const" type="Const" version="opset1">
			<data element_type="i64" offset="19914196" shape="5" size="40"/>
			<output>
				<port id="1" precision="I64">
					<dim>5</dim>
				</port>
			</output>
		</layer>
		<layer id="555" name="Slice_403/Cast_218950_const" type="Const" version="opset1">
			<data element_type="i64" offset="19914260" shape="5" size="40"/>
			<output>
				<port id="1" precision="I64">
					<dim>5</dim>
				</port>
			</output>
		</layer>
		<layer id="556" name="Slice_403/Cast_318952_const" type="Const" version="opset1">
			<data element_type="i64" offset="19862944" shape="5" size="40"/>
			<output>
				<port id="1" precision="I64">
					<dim>5</dim>
				</port>
			</output>
		</layer>
		<layer id="557" name="Slice_403" type="StridedSlice" version="opset1">
			<data begin_mask="1,1,1,1,0" ellipsis_mask="0,0,0,0,0" end_mask="1,1,1,1,0" new_axis_mask="0,0,0,0,0" shrink_axis_mask="0,0,0,0,0"/>
			<input>
				<port id="0">
					<dim>1</dim>
					<dim>3</dim>
					<dim>20</dim>
					<dim>20</dim>
					<dim>85</dim>
				</port>
				<port id="1">
					<dim>5</dim>
				</port>
				<port id="2">
					<dim>5</dim>
				</port>
				<port id="3">
					<dim>5</dim>
				</port>
			</input>
			<output>
				<port id="4" precision="FP32">
					<dim>1</dim>
					<dim>3</dim>
					<dim>20</dim>
					<dim>20</dim>
					<dim>81</dim>
				</port>
			</output>
		</layer>
		<layer id="558" name="Concat_404" type="Concat" version="opset1">
			<data axis="4"/>
			<input>
				<port id="0">
					<dim>1</dim>
					<dim>3</dim>
					<dim>20</dim>
					<dim>20</dim>
					<dim>2</dim>
				</port>
				<port id="1">
					<dim>1</dim>
					<dim>3</dim>
					<dim>20</dim>
					<dim>20</dim>
					<dim>2</dim>
				</port>
				<port id="2">
					<dim>1</dim>
					<dim>3</dim>
					<dim>20</dim>
					<dim>20</dim>
					<dim>81</dim>
				</port>
			</input>
			<output>
				<port id="3" precision="FP32">
					<dim>1</dim>
					<dim>3</dim>
					<dim>20</dim>
					<dim>20</dim>
					<dim>85</dim>
				</port>
			</output>
		</layer>
		<layer id="559" name="Reshape_407/Cast_118966_const" type="Const" version="opset1">
			<data element_type="i64" offset="19914300" shape="3" size="24"/>
			<output>
				<port id="1" precision="I64">
					<dim>3</dim>
				</port>
			</output>
		</layer>
		<layer id="560" name="Reshape_407" type="Reshape" version="opset1">
			<data special_zero="True"/>
			<input>
				<port id="0">
					<dim>1</dim>
					<dim>3</dim>
					<dim>20</dim>
					<dim>20</dim>
					<dim>85</dim>
				</port>
				<port id="1">
					<dim>3</dim>
				</port>
			</input>
			<output>
				<port id="2" precision="FP32">
					<dim>1</dim>
					<dim>1200</dim>
					<dim>85</dim>
				</port>
			</output>
		</layer>
		<layer id="561" name="Concat_408" type="Concat" version="opset1">
			<data axis="1"/>
			<input>
				<port id="0">
					<dim>1</dim>
					<dim>19200</dim>
					<dim>85</dim>
				</port>
				<port id="1">
					<dim>1</dim>
					<dim>4800</dim>
					<dim>85</dim>
				</port>
				<port id="2">
					<dim>1</dim>
					<dim>1200</dim>
					<dim>85</dim>
				</port>
			</input>
			<output>
				<port id="3" precision="FP32">
					<dim>1</dim>
					<dim>25200</dim>
					<dim>85</dim>
				</port>
			</output>
		</layer>
		<layer id="562" name="Concat_408/sink_port_0" type="Result" version="opset1">
			<input>
				<port id="0">
					<dim>1</dim>
					<dim>25200</dim>
					<dim>85</dim>
				</port>
			</input>
		</layer>
	</layers>
	<edges>
		<edge from-layer="0" from-port="0" to-layer="4" to-port="0"/>
		<edge from-layer="1" from-port="1" to-layer="4" to-port="1"/>
		<edge from-layer="2" from-port="1" to-layer="4" to-port="2"/>
		<edge from-layer="3" from-port="1" to-layer="4" to-port="3"/>
		<edge from-layer="4" from-port="4" to-layer="8" to-port="0"/>
		<edge from-layer="5" from-port="1" to-layer="8" to-port="1"/>
		<edge from-layer="6" from-port="1" to-layer="8" to-port="2"/>
		<edge from-layer="7" from-port="1" to-layer="8" to-port="3"/>
		<edge from-layer="0" from-port="0" to-layer="12" to-port="0"/>
		<edge from-layer="9" from-port="1" to-layer="12" to-port="1"/>
		<edge from-layer="10" from-port="1" to-layer="12" to-port="2"/>
		<edge from-layer="11" from-port="1" to-layer="12" to-port="3"/>
		<edge from-layer="12" from-port="4" to-layer="16" to-port="0"/>
		<edge from-layer="13" from-port="1" to-layer="16" to-port="1"/>
		<edge from-layer="14" from-port="1" to-layer="16" to-port="2"/>
		<edge from-layer="15" from-port="1" to-layer="16" to-port="3"/>
		<edge from-layer="0" from-port="0" to-layer="20" to-port="0"/>
		<edge from-layer="17" from-port="1" to-layer="20" to-port="1"/>
		<edge from-layer="18" from-port="1" to-layer="20" to-port="2"/>
		<edge from-layer="19" from-port="1" to-layer="20" to-port="3"/>
		<edge from-layer="20" from-port="4" to-layer="24" to-port="0"/>
		<edge from-layer="21" from-port="1" to-layer="24" to-port="1"/>
		<edge from-layer="22" from-port="1" to-layer="24" to-port="2"/>
		<edge from-layer="23" from-port="1" to-layer="24" to-port="3"/>
		<edge from-layer="0" from-port="0" to-layer="28" to-port="0"/>
		<edge from-layer="25" from-port="1" to-layer="28" to-port="1"/>
		<edge from-layer="26" from-port="1" to-layer="28" to-port="2"/>
		<edge from-layer="27" from-port="1" to-layer="28" to-port="3"/>
		<edge from-layer="28" from-port="4" to-layer="32" to-port="0"/>
		<edge from-layer="29" from-port="1" to-layer="32" to-port="1"/>
		<edge from-layer="30" from-port="1" to-layer="32" to-port="2"/>
		<edge from-layer="31" from-port="1" to-layer="32" to-port="3"/>
		<edge from-layer="8" from-port="4" to-layer="33" to-port="0"/>
		<edge from-layer="16" from-port="4" to-layer="33" to-port="1"/>
		<edge from-layer="24" from-port="4" to-layer="33" to-port="2"/>
		<edge from-layer="32" from-port="4" to-layer="33" to-port="3"/>
		<edge from-layer="33" from-port="4" to-layer="35" to-port="0"/>
		<edge from-layer="34" from-port="1" to-layer="35" to-port="1"/>
		<edge from-layer="35" from-port="2" to-layer="37" to-port="0"/>
		<edge from-layer="36" from-port="1" to-layer="37" to-port="1"/>
		<edge from-layer="37" from-port="2" to-layer="39" to-port="0"/>
		<edge from-layer="38" from-port="1" to-layer="39" to-port="1"/>
		<edge from-layer="39" from-port="2" to-layer="41" to-port="0"/>
		<edge from-layer="40" from-port="1" to-layer="41" to-port="1"/>
		<edge from-layer="41" from-port="2" to-layer="43" to-port="0"/>
		<edge from-layer="42" from-port="1" to-layer="43" to-port="1"/>
		<edge from-layer="43" from-port="2" to-layer="45" to-port="0"/>
		<edge from-layer="44" from-port="1" to-layer="45" to-port="1"/>
		<edge from-layer="45" from-port="2" to-layer="47" to-port="0"/>
		<edge from-layer="46" from-port="1" to-layer="47" to-port="1"/>
		<edge from-layer="47" from-port="2" to-layer="49" to-port="0"/>
		<edge from-layer="48" from-port="1" to-layer="49" to-port="1"/>
		<edge from-layer="49" from-port="2" to-layer="51" to-port="0"/>
		<edge from-layer="50" from-port="1" to-layer="51" to-port="1"/>
		<edge from-layer="51" from-port="2" to-layer="53" to-port="0"/>
		<edge from-layer="52" from-port="1" to-layer="53" to-port="1"/>
		<edge from-layer="53" from-port="2" to-layer="55" to-port="0"/>
		<edge from-layer="54" from-port="1" to-layer="55" to-port="1"/>
		<edge from-layer="55" from-port="2" to-layer="57" to-port="0"/>
		<edge from-layer="56" from-port="1" to-layer="57" to-port="1"/>
		<edge from-layer="57" from-port="2" to-layer="59" to-port="0"/>
		<edge from-layer="58" from-port="1" to-layer="59" to-port="1"/>
		<edge from-layer="59" from-port="2" to-layer="61" to-port="0"/>
		<edge from-layer="60" from-port="1" to-layer="61" to-port="1"/>
		<edge from-layer="61" from-port="2" to-layer="63" to-port="0"/>
		<edge from-layer="62" from-port="1" to-layer="63" to-port="1"/>
		<edge from-layer="51" from-port="2" to-layer="64" to-port="0"/>
		<edge from-layer="63" from-port="2" to-layer="64" to-port="1"/>
		<edge from-layer="64" from-port="2" to-layer="66" to-port="0"/>
		<edge from-layer="65" from-port="1" to-layer="66" to-port="1"/>
		<edge from-layer="45" from-port="2" to-layer="68" to-port="0"/>
		<edge from-layer="67" from-port="1" to-layer="68" to-port="1"/>
		<edge from-layer="66" from-port="2" to-layer="69" to-port="0"/>
		<edge from-layer="68" from-port="2" to-layer="69" to-port="1"/>
		<edge from-layer="69" from-port="2" to-layer="71" to-port="0"/>
		<edge from-layer="70" from-port="1" to-layer="71" to-port="1"/>
		<edge from-layer="71" from-port="2" to-layer="73" to-port="0"/>
		<edge from-layer="72" from-port="1" to-layer="73" to-port="1"/>
		<edge from-layer="73" from-port="2" to-layer="75" to-port="0"/>
		<edge from-layer="74" from-port="1" to-layer="75" to-port="1"/>
		<edge from-layer="75" from-port="2" to-layer="77" to-port="0"/>
		<edge from-layer="76" from-port="1" to-layer="77" to-port="1"/>
		<edge from-layer="77" from-port="2" to-layer="79" to-port="0"/>
		<edge from-layer="78" from-port="1" to-layer="79" to-port="1"/>
		<edge from-layer="79" from-port="2" to-layer="81" to-port="0"/>
		<edge from-layer="80" from-port="1" to-layer="81" to-port="1"/>
		<edge from-layer="81" from-port="2" to-layer="83" to-port="0"/>
		<edge from-layer="82" from-port="1" to-layer="83" to-port="1"/>
		<edge from-layer="83" from-port="2" to-layer="85" to-port="0"/>
		<edge from-layer="84" from-port="1" to-layer="85" to-port="1"/>
		<edge from-layer="85" from-port="2" to-layer="87" to-port="0"/>
		<edge from-layer="86" from-port="1" to-layer="87" to-port="1"/>
		<edge from-layer="87" from-port="2" to-layer="89" to-port="0"/>
		<edge from-layer="88" from-port="1" to-layer="89" to-port="1"/>
		<edge from-layer="89" from-port="2" to-layer="91" to-port="0"/>
		<edge from-layer="90" from-port="1" to-layer="91" to-port="1"/>
		<edge from-layer="91" from-port="2" to-layer="93" to-port="0"/>
		<edge from-layer="92" from-port="1" to-layer="93" to-port="1"/>
		<edge from-layer="93" from-port="2" to-layer="95" to-port="0"/>
		<edge from-layer="94" from-port="1" to-layer="95" to-port="1"/>
		<edge from-layer="95" from-port="2" to-layer="97" to-port="0"/>
		<edge from-layer="96" from-port="1" to-layer="97" to-port="1"/>
		<edge from-layer="97" from-port="2" to-layer="99" to-port="0"/>
		<edge from-layer="98" from-port="1" to-layer="99" to-port="1"/>
		<edge from-layer="99" from-port="2" to-layer="101" to-port="0"/>
		<edge from-layer="100" from-port="1" to-layer="101" to-port="1"/>
		<edge from-layer="101" from-port="2" to-layer="103" to-port="0"/>
		<edge from-layer="102" from-port="1" to-layer="103" to-port="1"/>
		<edge from-layer="103" from-port="2" to-layer="105" to-port="0"/>
		<edge from-layer="104" from-port="1" to-layer="105" to-port="1"/>
		<edge from-layer="93" from-port="2" to-layer="106" to-port="0"/>
		<edge from-layer="105" from-port="2" to-layer="106" to-port="1"/>
		<edge from-layer="106" from-port="2" to-layer="108" to-port="0"/>
		<edge from-layer="107" from-port="1" to-layer="108" to-port="1"/>
		<edge from-layer="108" from-port="2" to-layer="110" to-port="0"/>
		<edge from-layer="109" from-port="1" to-layer="110" to-port="1"/>
		<edge from-layer="110" from-port="2" to-layer="112" to-port="0"/>
		<edge from-layer="111" from-port="1" to-layer="112" to-port="1"/>
		<edge from-layer="112" from-port="2" to-layer="114" to-port="0"/>
		<edge from-layer="113" from-port="1" to-layer="114" to-port="1"/>
		<edge from-layer="114" from-port="2" to-layer="116" to-port="0"/>
		<edge from-layer="115" from-port="1" to-layer="116" to-port="1"/>
		<edge from-layer="116" from-port="2" to-layer="118" to-port="0"/>
		<edge from-layer="117" from-port="1" to-layer="118" to-port="1"/>
		<edge from-layer="106" from-port="2" to-layer="119" to-port="0"/>
		<edge from-layer="118" from-port="2" to-layer="119" to-port="1"/>
		<edge from-layer="119" from-port="2" to-layer="121" to-port="0"/>
		<edge from-layer="120" from-port="1" to-layer="121" to-port="1"/>
		<edge from-layer="121" from-port="2" to-layer="123" to-port="0"/>
		<edge from-layer="122" from-port="1" to-layer="123" to-port="1"/>
		<edge from-layer="123" from-port="2" to-layer="125" to-port="0"/>
		<edge from-layer="124" from-port="1" to-layer="125" to-port="1"/>
		<edge from-layer="125" from-port="2" to-layer="127" to-port="0"/>
		<edge from-layer="126" from-port="1" to-layer="127" to-port="1"/>
		<edge from-layer="127" from-port="2" to-layer="129" to-port="0"/>
		<edge from-layer="128" from-port="1" to-layer="129" to-port="1"/>
		<edge from-layer="129" from-port="2" to-layer="131" to-port="0"/>
		<edge from-layer="130" from-port="1" to-layer="131" to-port="1"/>
		<edge from-layer="119" from-port="2" to-layer="132" to-port="0"/>
		<edge from-layer="131" from-port="2" to-layer="132" to-port="1"/>
		<edge from-layer="132" from-port="2" to-layer="134" to-port="0"/>
		<edge from-layer="133" from-port="1" to-layer="134" to-port="1"/>
		<edge from-layer="87" from-port="2" to-layer="136" to-port="0"/>
		<edge from-layer="135" from-port="1" to-layer="136" to-port="1"/>
		<edge from-layer="134" from-port="2" to-layer="137" to-port="0"/>
		<edge from-layer="136" from-port="2" to-layer="137" to-port="1"/>
		<edge from-layer="137" from-port="2" to-layer="139" to-port="0"/>
		<edge from-layer="138" from-port="1" to-layer="139" to-port="1"/>
		<edge from-layer="139" from-port="2" to-layer="141" to-port="0"/>
		<edge from-layer="140" from-port="1" to-layer="141" to-port="1"/>
		<edge from-layer="141" from-port="2" to-layer="143" to-port="0"/>
		<edge from-layer="142" from-port="1" to-layer="143" to-port="1"/>
		<edge from-layer="143" from-port="2" to-layer="145" to-port="0"/>
		<edge from-layer="144" from-port="1" to-layer="145" to-port="1"/>
		<edge from-layer="145" from-port="2" to-layer="147" to-port="0"/>
		<edge from-layer="146" from-port="1" to-layer="147" to-port="1"/>
		<edge from-layer="147" from-port="2" to-layer="149" to-port="0"/>
		<edge from-layer="148" from-port="1" to-layer="149" to-port="1"/>
		<edge from-layer="149" from-port="2" to-layer="151" to-port="0"/>
		<edge from-layer="150" from-port="1" to-layer="151" to-port="1"/>
		<edge from-layer="151" from-port="2" to-layer="153" to-port="0"/>
		<edge from-layer="152" from-port="1" to-layer="153" to-port="1"/>
		<edge from-layer="153" from-port="2" to-layer="155" to-port="0"/>
		<edge from-layer="154" from-port="1" to-layer="155" to-port="1"/>
		<edge from-layer="155" from-port="2" to-layer="157" to-port="0"/>
		<edge from-layer="156" from-port="1" to-layer="157" to-port="1"/>
		<edge from-layer="157" from-port="2" to-layer="159" to-port="0"/>
		<edge from-layer="158" from-port="1" to-layer="159" to-port="1"/>
		<edge from-layer="159" from-port="2" to-layer="161" to-port="0"/>
		<edge from-layer="160" from-port="1" to-layer="161" to-port="1"/>
		<edge from-layer="161" from-port="2" to-layer="163" to-port="0"/>
		<edge from-layer="162" from-port="1" to-layer="163" to-port="1"/>
		<edge from-layer="163" from-port="2" to-layer="165" to-port="0"/>
		<edge from-layer="164" from-port="1" to-layer="165" to-port="1"/>
		<edge from-layer="165" from-port="2" to-layer="167" to-port="0"/>
		<edge from-layer="166" from-port="1" to-layer="167" to-port="1"/>
		<edge from-layer="167" from-port="2" to-layer="169" to-port="0"/>
		<edge from-layer="168" from-port="1" to-layer="169" to-port="1"/>
		<edge from-layer="169" from-port="2" to-layer="171" to-port="0"/>
		<edge from-layer="170" from-port="1" to-layer="171" to-port="1"/>
		<edge from-layer="171" from-port="2" to-layer="173" to-port="0"/>
		<edge from-layer="172" from-port="1" to-layer="173" to-port="1"/>
		<edge from-layer="161" from-port="2" to-layer="174" to-port="0"/>
		<edge from-layer="173" from-port="2" to-layer="174" to-port="1"/>
		<edge from-layer="174" from-port="2" to-layer="176" to-port="0"/>
		<edge from-layer="175" from-port="1" to-layer="176" to-port="1"/>
		<edge from-layer="176" from-port="2" to-layer="178" to-port="0"/>
		<edge from-layer="177" from-port="1" to-layer="178" to-port="1"/>
		<edge from-layer="178" from-port="2" to-layer="180" to-port="0"/>
		<edge from-layer="179" from-port="1" to-layer="180" to-port="1"/>
		<edge from-layer="180" from-port="2" to-layer="182" to-port="0"/>
		<edge from-layer="181" from-port="1" to-layer="182" to-port="1"/>
		<edge from-layer="182" from-port="2" to-layer="184" to-port="0"/>
		<edge from-layer="183" from-port="1" to-layer="184" to-port="1"/>
		<edge from-layer="184" from-port="2" to-layer="186" to-port="0"/>
		<edge from-layer="185" from-port="1" to-layer="186" to-port="1"/>
		<edge from-layer="174" from-port="2" to-layer="187" to-port="0"/>
		<edge from-layer="186" from-port="2" to-layer="187" to-port="1"/>
		<edge from-layer="187" from-port="2" to-layer="189" to-port="0"/>
		<edge from-layer="188" from-port="1" to-layer="189" to-port="1"/>
		<edge from-layer="189" from-port="2" to-layer="191" to-port="0"/>
		<edge from-layer="190" from-port="1" to-layer="191" to-port="1"/>
		<edge from-layer="191" from-port="2" to-layer="193" to-port="0"/>
		<edge from-layer="192" from-port="1" to-layer="193" to-port="1"/>
		<edge from-layer="193" from-port="2" to-layer="195" to-port="0"/>
		<edge from-layer="194" from-port="1" to-layer="195" to-port="1"/>
		<edge from-layer="195" from-port="2" to-layer="197" to-port="0"/>
		<edge from-layer="196" from-port="1" to-layer="197" to-port="1"/>
		<edge from-layer="197" from-port="2" to-layer="199" to-port="0"/>
		<edge from-layer="198" from-port="1" to-layer="199" to-port="1"/>
		<edge from-layer="187" from-port="2" to-layer="200" to-port="0"/>
		<edge from-layer="199" from-port="2" to-layer="200" to-port="1"/>
		<edge from-layer="200" from-port="2" to-layer="202" to-port="0"/>
		<edge from-layer="201" from-port="1" to-layer="202" to-port="1"/>
		<edge from-layer="155" from-port="2" to-layer="204" to-port="0"/>
		<edge from-layer="203" from-port="1" to-layer="204" to-port="1"/>
		<edge from-layer="202" from-port="2" to-layer="205" to-port="0"/>
		<edge from-layer="204" from-port="2" to-layer="205" to-port="1"/>
		<edge from-layer="205" from-port="2" to-layer="207" to-port="0"/>
		<edge from-layer="206" from-port="1" to-layer="207" to-port="1"/>
		<edge from-layer="207" from-port="2" to-layer="209" to-port="0"/>
		<edge from-layer="208" from-port="1" to-layer="209" to-port="1"/>
		<edge from-layer="209" from-port="2" to-layer="211" to-port="0"/>
		<edge from-layer="210" from-port="1" to-layer="211" to-port="1"/>
		<edge from-layer="211" from-port="2" to-layer="213" to-port="0"/>
		<edge from-layer="212" from-port="1" to-layer="213" to-port="1"/>
		<edge from-layer="213" from-port="2" to-layer="215" to-port="0"/>
		<edge from-layer="214" from-port="1" to-layer="215" to-port="1"/>
		<edge from-layer="215" from-port="2" to-layer="217" to-port="0"/>
		<edge from-layer="216" from-port="1" to-layer="217" to-port="1"/>
		<edge from-layer="217" from-port="2" to-layer="219" to-port="0"/>
		<edge from-layer="218" from-port="1" to-layer="219" to-port="1"/>
		<edge from-layer="219" from-port="2" to-layer="221" to-port="0"/>
		<edge from-layer="220" from-port="1" to-layer="221" to-port="1"/>
		<edge from-layer="221" from-port="2" to-layer="223" to-port="0"/>
		<edge from-layer="222" from-port="1" to-layer="223" to-port="1"/>
		<edge from-layer="223" from-port="2" to-layer="225" to-port="0"/>
		<edge from-layer="224" from-port="1" to-layer="225" to-port="1"/>
		<edge from-layer="225" from-port="2" to-layer="227" to-port="0"/>
		<edge from-layer="226" from-port="1" to-layer="227" to-port="1"/>
		<edge from-layer="227" from-port="2" to-layer="229" to-port="0"/>
		<edge from-layer="228" from-port="1" to-layer="229" to-port="1"/>
		<edge from-layer="229" from-port="2" to-layer="230" to-port="0"/>
		<edge from-layer="229" from-port="2" to-layer="231" to-port="0"/>
		<edge from-layer="229" from-port="2" to-layer="232" to-port="0"/>
		<edge from-layer="229" from-port="2" to-layer="233" to-port="0"/>
		<edge from-layer="230" from-port="1" to-layer="233" to-port="1"/>
		<edge from-layer="231" from-port="1" to-layer="233" to-port="2"/>
		<edge from-layer="232" from-port="1" to-layer="233" to-port="3"/>
		<edge from-layer="233" from-port="4" to-layer="235" to-port="0"/>
		<edge from-layer="234" from-port="1" to-layer="235" to-port="1"/>
		<edge from-layer="235" from-port="2" to-layer="237" to-port="0"/>
		<edge from-layer="236" from-port="1" to-layer="237" to-port="1"/>
		<edge from-layer="237" from-port="2" to-layer="239" to-port="0"/>
		<edge from-layer="238" from-port="1" to-layer="239" to-port="1"/>
		<edge from-layer="239" from-port="2" to-layer="241" to-port="0"/>
		<edge from-layer="240" from-port="1" to-layer="241" to-port="1"/>
		<edge from-layer="241" from-port="2" to-layer="243" to-port="0"/>
		<edge from-layer="242" from-port="1" to-layer="243" to-port="1"/>
		<edge from-layer="243" from-port="2" to-layer="245" to-port="0"/>
		<edge from-layer="244" from-port="1" to-layer="245" to-port="1"/>
		<edge from-layer="245" from-port="2" to-layer="247" to-port="0"/>
		<edge from-layer="246" from-port="1" to-layer="247" to-port="1"/>
		<edge from-layer="247" from-port="2" to-layer="249" to-port="0"/>
		<edge from-layer="248" from-port="1" to-layer="249" to-port="1"/>
		<edge from-layer="249" from-port="2" to-layer="251" to-port="0"/>
		<edge from-layer="250" from-port="1" to-layer="251" to-port="1"/>
		<edge from-layer="251" from-port="2" to-layer="253" to-port="0"/>
		<edge from-layer="252" from-port="1" to-layer="253" to-port="1"/>
		<edge from-layer="253" from-port="2" to-layer="255" to-port="0"/>
		<edge from-layer="254" from-port="1" to-layer="255" to-port="1"/>
		<edge from-layer="255" from-port="2" to-layer="257" to-port="0"/>
		<edge from-layer="256" from-port="1" to-layer="257" to-port="1"/>
		<edge from-layer="257" from-port="2" to-layer="259" to-port="0"/>
		<edge from-layer="258" from-port="1" to-layer="259" to-port="1"/>
		<edge from-layer="239" from-port="2" to-layer="261" to-port="0"/>
		<edge from-layer="260" from-port="1" to-layer="261" to-port="1"/>
		<edge from-layer="259" from-port="2" to-layer="262" to-port="0"/>
		<edge from-layer="261" from-port="2" to-layer="262" to-port="1"/>
		<edge from-layer="262" from-port="2" to-layer="264" to-port="0"/>
		<edge from-layer="263" from-port="1" to-layer="264" to-port="1"/>
		<edge from-layer="264" from-port="2" to-layer="266" to-port="0"/>
		<edge from-layer="265" from-port="1" to-layer="266" to-port="1"/>
		<edge from-layer="266" from-port="2" to-layer="268" to-port="0"/>
		<edge from-layer="267" from-port="1" to-layer="268" to-port="1"/>
		<edge from-layer="268" from-port="2" to-layer="270" to-port="0"/>
		<edge from-layer="269" from-port="1" to-layer="270" to-port="1"/>
		<edge from-layer="270" from-port="2" to-layer="272" to-port="0"/>
		<edge from-layer="271" from-port="1" to-layer="272" to-port="1"/>
		<edge from-layer="272" from-port="2" to-layer="274" to-port="0"/>
		<edge from-layer="273" from-port="1" to-layer="274" to-port="1"/>
		<edge from-layer="274" from-port="2" to-layer="276" to-port="0"/>
		<edge from-layer="275" from-port="1" to-layer="276" to-port="1"/>
		<edge from-layer="276" from-port="2" to-layer="278" to-port="0"/>
		<edge from-layer="277" from-port="1" to-layer="278" to-port="1"/>
		<edge from-layer="278" from-port="2" to-layer="280" to-port="0"/>
		<edge from-layer="279" from-port="1" to-layer="280" to-port="1"/>
		<edge from-layer="280" from-port="2" to-layer="282" to-port="0"/>
		<edge from-layer="281" from-port="1" to-layer="282" to-port="1"/>
		<edge from-layer="282" from-port="2" to-layer="283" to-port="0"/>
		<edge from-layer="217" from-port="2" to-layer="283" to-port="1"/>
		<edge from-layer="283" from-port="2" to-layer="285" to-port="0"/>
		<edge from-layer="284" from-port="1" to-layer="285" to-port="1"/>
		<edge from-layer="285" from-port="2" to-layer="287" to-port="0"/>
		<edge from-layer="286" from-port="1" to-layer="287" to-port="1"/>
		<edge from-layer="287" from-port="2" to-layer="289" to-port="0"/>
		<edge from-layer="288" from-port="1" to-layer="289" to-port="1"/>
		<edge from-layer="289" from-port="2" to-layer="291" to-port="0"/>
		<edge from-layer="290" from-port="1" to-layer="291" to-port="1"/>
		<edge from-layer="291" from-port="2" to-layer="293" to-port="0"/>
		<edge from-layer="292" from-port="1" to-layer="293" to-port="1"/>
		<edge from-layer="293" from-port="2" to-layer="295" to-port="0"/>
		<edge from-layer="294" from-port="1" to-layer="295" to-port="1"/>
		<edge from-layer="295" from-port="2" to-layer="297" to-port="0"/>
		<edge from-layer="296" from-port="1" to-layer="297" to-port="1"/>
		<edge from-layer="297" from-port="2" to-layer="299" to-port="0"/>
		<edge from-layer="298" from-port="1" to-layer="299" to-port="1"/>
		<edge from-layer="299" from-port="2" to-layer="301" to-port="0"/>
		<edge from-layer="300" from-port="1" to-layer="301" to-port="1"/>
		<edge from-layer="301" from-port="2" to-layer="303" to-port="0"/>
		<edge from-layer="302" from-port="1" to-layer="303" to-port="1"/>
		<edge from-layer="283" from-port="2" to-layer="305" to-port="0"/>
		<edge from-layer="304" from-port="1" to-layer="305" to-port="1"/>
		<edge from-layer="303" from-port="2" to-layer="306" to-port="0"/>
		<edge from-layer="305" from-port="2" to-layer="306" to-port="1"/>
		<edge from-layer="306" from-port="2" to-layer="308" to-port="0"/>
		<edge from-layer="307" from-port="1" to-layer="308" to-port="1"/>
		<edge from-layer="308" from-port="2" to-layer="310" to-port="0"/>
		<edge from-layer="309" from-port="1" to-layer="310" to-port="1"/>
		<edge from-layer="310" from-port="2" to-layer="312" to-port="0"/>
		<edge from-layer="311" from-port="1" to-layer="312" to-port="1"/>
		<edge from-layer="312" from-port="2" to-layer="314" to-port="0"/>
		<edge from-layer="313" from-port="1" to-layer="314" to-port="1"/>
		<edge from-layer="314" from-port="2" to-layer="316" to-port="0"/>
		<edge from-layer="315" from-port="1" to-layer="316" to-port="1"/>
		<edge from-layer="316" from-port="2" to-layer="318" to-port="0"/>
		<edge from-layer="317" from-port="1" to-layer="318" to-port="1"/>
		<edge from-layer="318" from-port="2" to-layer="320" to-port="0"/>
		<edge from-layer="319" from-port="1" to-layer="320" to-port="1"/>
		<edge from-layer="320" from-port="2" to-layer="322" to-port="0"/>
		<edge from-layer="321" from-port="1" to-layer="322" to-port="1"/>
		<edge from-layer="322" from-port="2" to-layer="324" to-port="0"/>
		<edge from-layer="323" from-port="1" to-layer="324" to-port="1"/>
		<edge from-layer="324" from-port="2" to-layer="326" to-port="0"/>
		<edge from-layer="325" from-port="1" to-layer="326" to-port="1"/>
		<edge from-layer="326" from-port="2" to-layer="327" to-port="0"/>
		<edge from-layer="149" from-port="2" to-layer="327" to-port="1"/>
		<edge from-layer="327" from-port="2" to-layer="329" to-port="0"/>
		<edge from-layer="328" from-port="1" to-layer="329" to-port="1"/>
		<edge from-layer="329" from-port="2" to-layer="331" to-port="0"/>
		<edge from-layer="330" from-port="1" to-layer="331" to-port="1"/>
		<edge from-layer="331" from-port="2" to-layer="333" to-port="0"/>
		<edge from-layer="332" from-port="1" to-layer="333" to-port="1"/>
		<edge from-layer="333" from-port="2" to-layer="335" to-port="0"/>
		<edge from-layer="334" from-port="1" to-layer="335" to-port="1"/>
		<edge from-layer="335" from-port="2" to-layer="337" to-port="0"/>
		<edge from-layer="336" from-port="1" to-layer="337" to-port="1"/>
		<edge from-layer="337" from-port="2" to-layer="339" to-port="0"/>
		<edge from-layer="338" from-port="1" to-layer="339" to-port="1"/>
		<edge from-layer="339" from-port="2" to-layer="341" to-port="0"/>
		<edge from-layer="340" from-port="1" to-layer="341" to-port="1"/>
		<edge from-layer="341" from-port="2" to-layer="343" to-port="0"/>
		<edge from-layer="342" from-port="1" to-layer="343" to-port="1"/>
		<edge from-layer="343" from-port="2" to-layer="345" to-port="0"/>
		<edge from-layer="344" from-port="1" to-layer="345" to-port="1"/>
		<edge from-layer="345" from-port="2" to-layer="347" to-port="0"/>
		<edge from-layer="346" from-port="1" to-layer="347" to-port="1"/>
		<edge from-layer="327" from-port="2" to-layer="349" to-port="0"/>
		<edge from-layer="348" from-port="1" to-layer="349" to-port="1"/>
		<edge from-layer="347" from-port="2" to-layer="350" to-port="0"/>
		<edge from-layer="349" from-port="2" to-layer="350" to-port="1"/>
		<edge from-layer="350" from-port="2" to-layer="352" to-port="0"/>
		<edge from-layer="351" from-port="1" to-layer="352" to-port="1"/>
		<edge from-layer="352" from-port="2" to-layer="354" to-port="0"/>
		<edge from-layer="353" from-port="1" to-layer="354" to-port="1"/>
		<edge from-layer="354" from-port="2" to-layer="356" to-port="0"/>
		<edge from-layer="355" from-port="1" to-layer="356" to-port="1"/>
		<edge from-layer="356" from-port="2" to-layer="358" to-port="0"/>
		<edge from-layer="357" from-port="1" to-layer="358" to-port="1"/>
		<edge from-layer="358" from-port="2" to-layer="360" to-port="0"/>
		<edge from-layer="359" from-port="1" to-layer="360" to-port="1"/>
		<edge from-layer="360" from-port="2" to-layer="362" to-port="0"/>
		<edge from-layer="361" from-port="1" to-layer="362" to-port="1"/>
		<edge from-layer="362" from-port="2" to-layer="364" to-port="0"/>
		<edge from-layer="363" from-port="1" to-layer="364" to-port="1"/>
		<edge from-layer="364" from-port="2" to-layer="366" to-port="0"/>
		<edge from-layer="365" from-port="1" to-layer="366" to-port="1"/>
		<edge from-layer="366" from-port="2" to-layer="368" to-port="0"/>
		<edge from-layer="367" from-port="1" to-layer="368" to-port="1"/>
		<edge from-layer="368" from-port="2" to-layer="370" to-port="0"/>
		<edge from-layer="369" from-port="1" to-layer="370" to-port="1"/>
		<edge from-layer="370" from-port="2" to-layer="371" to-port="0"/>
		<edge from-layer="371" from-port="1" to-layer="375" to-port="0"/>
		<edge from-layer="372" from-port="1" to-layer="375" to-port="1"/>
		<edge from-layer="373" from-port="1" to-layer="375" to-port="2"/>
		<edge from-layer="374" from-port="1" to-layer="375" to-port="3"/>
		<edge from-layer="375" from-port="4" to-layer="377" to-port="0"/>
		<edge from-layer="376" from-port="1" to-layer="377" to-port="1"/>
		<edge from-layer="377" from-port="2" to-layer="379" to-port="0"/>
		<edge from-layer="378" from-port="1" to-layer="379" to-port="1"/>
		<edge from-layer="379" from-port="2" to-layer="381" to-port="0"/>
		<edge from-layer="380" from-port="1" to-layer="381" to-port="1"/>
		<edge from-layer="381" from-port="2" to-layer="383" to-port="0"/>
		<edge from-layer="382" from-port="1" to-layer="383" to-port="1"/>
		<edge from-layer="371" from-port="1" to-layer="387" to-port="0"/>
		<edge from-layer="384" from-port="1" to-layer="387" to-port="1"/>
		<edge from-layer="385" from-port="1" to-layer="387" to-port="2"/>
		<edge from-layer="386" from-port="1" to-layer="387" to-port="3"/>
		<edge from-layer="387" from-port="4" to-layer="389" to-port="0"/>
		<edge from-layer="388" from-port="1" to-layer="389" to-port="1"/>
		<edge from-layer="389" from-port="2" to-layer="391" to-port="0"/>
		<edge from-layer="390" from-port="1" to-layer="391" to-port="1"/>
		<edge from-layer="391" from-port="2" to-layer="393" to-port="0"/>
		<edge from-layer="392" from-port="1" to-layer="393" to-port="1"/>
		<edge from-layer="371" from-port="1" to-layer="397" to-port="0"/>
		<edge from-layer="394" from-port="1" to-layer="397" to-port="1"/>
		<edge from-layer="395" from-port="1" to-layer="397" to-port="2"/>
		<edge from-layer="396" from-port="1" to-layer="397" to-port="3"/>
		<edge from-layer="383" from-port="2" to-layer="398" to-port="0"/>
		<edge from-layer="393" from-port="2" to-layer="398" to-port="1"/>
		<edge from-layer="397" from-port="4" to-layer="398" to-port="2"/>
		<edge from-layer="398" from-port="3" to-layer="400" to-port="0"/>
		<edge from-layer="399" from-port="1" to-layer="400" to-port="1"/>
		<edge from-layer="362" from-port="2" to-layer="402" to-port="0"/>
		<edge from-layer="401" from-port="1" to-layer="402" to-port="1"/>
		<edge from-layer="402" from-port="2" to-layer="404" to-port="0"/>
		<edge from-layer="403" from-port="1" to-layer="404" to-port="1"/>
		<edge from-layer="404" from-port="2" to-layer="406" to-port="0"/>
		<edge from-layer="405" from-port="1" to-layer="406" to-port="1"/>
		<edge from-layer="406" from-port="2" to-layer="407" to-port="0"/>
		<edge from-layer="324" from-port="2" to-layer="407" to-port="1"/>
		<edge from-layer="407" from-port="2" to-layer="409" to-port="0"/>
		<edge from-layer="408" from-port="1" to-layer="409" to-port="1"/>
		<edge from-layer="409" from-port="2" to-layer="411" to-port="0"/>
		<edge from-layer="410" from-port="1" to-layer="411" to-port="1"/>
		<edge from-layer="411" from-port="2" to-layer="413" to-port="0"/>
		<edge from-layer="412" from-port="1" to-layer="413" to-port="1"/>
		<edge from-layer="413" from-port="2" to-layer="415" to-port="0"/>
		<edge from-layer="414" from-port="1" to-layer="415" to-port="1"/>
		<edge from-layer="415" from-port="2" to-layer="417" to-port="0"/>
		<edge from-layer="416" from-port="1" to-layer="417" to-port="1"/>
		<edge from-layer="417" from-port="2" to-layer="419" to-port="0"/>
		<edge from-layer="418" from-port="1" to-layer="419" to-port="1"/>
		<edge from-layer="419" from-port="2" to-layer="421" to-port="0"/>
		<edge from-layer="420" from-port="1" to-layer="421" to-port="1"/>
		<edge from-layer="421" from-port="2" to-layer="423" to-port="0"/>
		<edge from-layer="422" from-port="1" to-layer="423" to-port="1"/>
		<edge from-layer="423" from-port="2" to-layer="425" to-port="0"/>
		<edge from-layer="424" from-port="1" to-layer="425" to-port="1"/>
		<edge from-layer="425" from-port="2" to-layer="427" to-port="0"/>
		<edge from-layer="426" from-port="1" to-layer="427" to-port="1"/>
		<edge from-layer="407" from-port="2" to-layer="429" to-port="0"/>
		<edge from-layer="428" from-port="1" to-layer="429" to-port="1"/>
		<edge from-layer="427" from-port="2" to-layer="430" to-port="0"/>
		<edge from-layer="429" from-port="2" to-layer="430" to-port="1"/>
		<edge from-layer="430" from-port="2" to-layer="432" to-port="0"/>
		<edge from-layer="431" from-port="1" to-layer="432" to-port="1"/>
		<edge from-layer="432" from-port="2" to-layer="434" to-port="0"/>
		<edge from-layer="433" from-port="1" to-layer="434" to-port="1"/>
		<edge from-layer="434" from-port="2" to-layer="436" to-port="0"/>
		<edge from-layer="435" from-port="1" to-layer="436" to-port="1"/>
		<edge from-layer="436" from-port="2" to-layer="438" to-port="0"/>
		<edge from-layer="437" from-port="1" to-layer="438" to-port="1"/>
		<edge from-layer="438" from-port="2" to-layer="440" to-port="0"/>
		<edge from-layer="439" from-port="1" to-layer="440" to-port="1"/>
		<edge from-layer="440" from-port="2" to-layer="442" to-port="0"/>
		<edge from-layer="441" from-port="1" to-layer="442" to-port="1"/>
		<edge from-layer="442" from-port="2" to-layer="444" to-port="0"/>
		<edge from-layer="443" from-port="1" to-layer="444" to-port="1"/>
		<edge from-layer="444" from-port="2" to-layer="446" to-port="0"/>
		<edge from-layer="445" from-port="1" to-layer="446" to-port="1"/>
		<edge from-layer="446" from-port="2" to-layer="448" to-port="0"/>
		<edge from-layer="447" from-port="1" to-layer="448" to-port="1"/>
		<edge from-layer="448" from-port="2" to-layer="450" to-port="0"/>
		<edge from-layer="449" from-port="1" to-layer="450" to-port="1"/>
		<edge from-layer="450" from-port="2" to-layer="451" to-port="0"/>
		<edge from-layer="451" from-port="1" to-layer="455" to-port="0"/>
		<edge from-layer="452" from-port="1" to-layer="455" to-port="1"/>
		<edge from-layer="453" from-port="1" to-layer="455" to-port="2"/>
		<edge from-layer="454" from-port="1" to-layer="455" to-port="3"/>
		<edge from-layer="455" from-port="4" to-layer="457" to-port="0"/>
		<edge from-layer="456" from-port="1" to-layer="457" to-port="1"/>
		<edge from-layer="457" from-port="2" to-layer="459" to-port="0"/>
		<edge from-layer="458" from-port="1" to-layer="459" to-port="1"/>
		<edge from-layer="459" from-port="2" to-layer="461" to-port="0"/>
		<edge from-layer="460" from-port="1" to-layer="461" to-port="1"/>
		<edge from-layer="461" from-port="2" to-layer="463" to-port="0"/>
		<edge from-layer="462" from-port="1" to-layer="463" to-port="1"/>
		<edge from-layer="451" from-port="1" to-layer="467" to-port="0"/>
		<edge from-layer="464" from-port="1" to-layer="467" to-port="1"/>
		<edge from-layer="465" from-port="1" to-layer="467" to-port="2"/>
		<edge from-layer="466" from-port="1" to-layer="467" to-port="3"/>
		<edge from-layer="467" from-port="4" to-layer="469" to-port="0"/>
		<edge from-layer="468" from-port="1" to-layer="469" to-port="1"/>
		<edge from-layer="469" from-port="2" to-layer="471" to-port="0"/>
		<edge from-layer="470" from-port="1" to-layer="471" to-port="1"/>
		<edge from-layer="471" from-port="2" to-layer="473" to-port="0"/>
		<edge from-layer="472" from-port="1" to-layer="473" to-port="1"/>
		<edge from-layer="451" from-port="1" to-layer="477" to-port="0"/>
		<edge from-layer="474" from-port="1" to-layer="477" to-port="1"/>
		<edge from-layer="475" from-port="1" to-layer="477" to-port="2"/>
		<edge from-layer="476" from-port="1" to-layer="477" to-port="3"/>
		<edge from-layer="463" from-port="2" to-layer="478" to-port="0"/>
		<edge from-layer="473" from-port="2" to-layer="478" to-port="1"/>
		<edge from-layer="477" from-port="4" to-layer="478" to-port="2"/>
		<edge from-layer="478" from-port="3" to-layer="480" to-port="0"/>
		<edge from-layer="479" from-port="1" to-layer="480" to-port="1"/>
		<edge from-layer="442" from-port="2" to-layer="482" to-port="0"/>
		<edge from-layer="481" from-port="1" to-layer="482" to-port="1"/>
		<edge from-layer="482" from-port="2" to-layer="484" to-port="0"/>
		<edge from-layer="483" from-port="1" to-layer="484" to-port="1"/>
		<edge from-layer="484" from-port="2" to-layer="486" to-port="0"/>
		<edge from-layer="485" from-port="1" to-layer="486" to-port="1"/>
		<edge from-layer="486" from-port="2" to-layer="487" to-port="0"/>
		<edge from-layer="280" from-port="2" to-layer="487" to-port="1"/>
		<edge from-layer="487" from-port="2" to-layer="489" to-port="0"/>
		<edge from-layer="488" from-port="1" to-layer="489" to-port="1"/>
		<edge from-layer="489" from-port="2" to-layer="491" to-port="0"/>
		<edge from-layer="490" from-port="1" to-layer="491" to-port="1"/>
		<edge from-layer="491" from-port="2" to-layer="493" to-port="0"/>
		<edge from-layer="492" from-port="1" to-layer="493" to-port="1"/>
		<edge from-layer="493" from-port="2" to-layer="495" to-port="0"/>
		<edge from-layer="494" from-port="1" to-layer="495" to-port="1"/>
		<edge from-layer="495" from-port="2" to-layer="497" to-port="0"/>
		<edge from-layer="496" from-port="1" to-layer="497" to-port="1"/>
		<edge from-layer="497" from-port="2" to-layer="499" to-port="0"/>
		<edge from-layer="498" from-port="1" to-layer="499" to-port="1"/>
		<edge from-layer="499" from-port="2" to-layer="501" to-port="0"/>
		<edge from-layer="500" from-port="1" to-layer="501" to-port="1"/>
		<edge from-layer="501" from-port="2" to-layer="503" to-port="0"/>
		<edge from-layer="502" from-port="1" to-layer="503" to-port="1"/>
		<edge from-layer="503" from-port="2" to-layer="505" to-port="0"/>
		<edge from-layer="504" from-port="1" to-layer="505" to-port="1"/>
		<edge from-layer="505" from-port="2" to-layer="507" to-port="0"/>
		<edge from-layer="506" from-port="1" to-layer="507" to-port="1"/>
		<edge from-layer="487" from-port="2" to-layer="509" to-port="0"/>
		<edge from-layer="508" from-port="1" to-layer="509" to-port="1"/>
		<edge from-layer="507" from-port="2" to-layer="510" to-port="0"/>
		<edge from-layer="509" from-port="2" to-layer="510" to-port="1"/>
		<edge from-layer="510" from-port="2" to-layer="512" to-port="0"/>
		<edge from-layer="511" from-port="1" to-layer="512" to-port="1"/>
		<edge from-layer="512" from-port="2" to-layer="514" to-port="0"/>
		<edge from-layer="513" from-port="1" to-layer="514" to-port="1"/>
		<edge from-layer="514" from-port="2" to-layer="516" to-port="0"/>
		<edge from-layer="515" from-port="1" to-layer="516" to-port="1"/>
		<edge from-layer="516" from-port="2" to-layer="518" to-port="0"/>
		<edge from-layer="517" from-port="1" to-layer="518" to-port="1"/>
		<edge from-layer="518" from-port="2" to-layer="520" to-port="0"/>
		<edge from-layer="519" from-port="1" to-layer="520" to-port="1"/>
		<edge from-layer="520" from-port="2" to-layer="522" to-port="0"/>
		<edge from-layer="521" from-port="1" to-layer="522" to-port="1"/>
		<edge from-layer="522" from-port="2" to-layer="524" to-port="0"/>
		<edge from-layer="523" from-port="1" to-layer="524" to-port="1"/>
		<edge from-layer="524" from-port="2" to-layer="526" to-port="0"/>
		<edge from-layer="525" from-port="1" to-layer="526" to-port="1"/>
		<edge from-layer="526" from-port="2" to-layer="528" to-port="0"/>
		<edge from-layer="527" from-port="1" to-layer="528" to-port="1"/>
		<edge from-layer="528" from-port="2" to-layer="530" to-port="0"/>
		<edge from-layer="529" from-port="1" to-layer="530" to-port="1"/>
		<edge from-layer="530" from-port="2" to-layer="531" to-port="0"/>
		<edge from-layer="531" from-port="1" to-layer="535" to-port="0"/>
		<edge from-layer="532" from-port="1" to-layer="535" to-port="1"/>
		<edge from-layer="533" from-port="1" to-layer="535" to-port="2"/>
		<edge from-layer="534" from-port="1" to-layer="535" to-port="3"/>
		<edge from-layer="535" from-port="4" to-layer="537" to-port="0"/>
		<edge from-layer="536" from-port="1" to-layer="537" to-port="1"/>
		<edge from-layer="537" from-port="2" to-layer="539" to-port="0"/>
		<edge from-layer="538" from-port="1" to-layer="539" to-port="1"/>
		<edge from-layer="539" from-port="2" to-layer="541" to-port="0"/>
		<edge from-layer="540" from-port="1" to-layer="541" to-port="1"/>
		<edge from-layer="541" from-port="2" to-layer="543" to-port="0"/>
		<edge from-layer="542" from-port="1" to-layer="543" to-port="1"/>
		<edge from-layer="531" from-port="1" to-layer="547" to-port="0"/>
		<edge from-layer="544" from-port="1" to-layer="547" to-port="1"/>
		<edge from-layer="545" from-port="1" to-layer="547" to-port="2"/>
		<edge from-layer="546" from-port="1" to-layer="547" to-port="3"/>
		<edge from-layer="547" from-port="4" to-layer="549" to-port="0"/>
		<edge from-layer="548" from-port="1" to-layer="549" to-port="1"/>
		<edge from-layer="549" from-port="2" to-layer="551" to-port="0"/>
		<edge from-layer="550" from-port="1" to-layer="551" to-port="1"/>
		<edge from-layer="551" from-port="2" to-layer="553" to-port="0"/>
		<edge from-layer="552" from-port="1" to-layer="553" to-port="1"/>
		<edge from-layer="531" from-port="1" to-layer="557" to-port="0"/>
		<edge from-layer="554" from-port="1" to-layer="557" to-port="1"/>
		<edge from-layer="555" from-port="1" to-layer="557" to-port="2"/>
		<edge from-layer="556" from-port="1" to-layer="557" to-port="3"/>
		<edge from-layer="543" from-port="2" to-layer="558" to-port="0"/>
		<edge from-layer="553" from-port="2" to-layer="558" to-port="1"/>
		<edge from-layer="557" from-port="4" to-layer="558" to-port="2"/>
		<edge from-layer="558" from-port="3" to-layer="560" to-port="0"/>
		<edge from-layer="559" from-port="1" to-layer="560" to-port="1"/>
		<edge from-layer="400" from-port="2" to-layer="561" to-port="0"/>
		<edge from-layer="480" from-port="2" to-layer="561" to-port="1"/>
		<edge from-layer="560" from-port="2" to-layer="561" to-port="2"/>
		<edge from-layer="561" from-port="3" to-layer="562" to-port="0"/>
	</edges>
	<meta_data>
		<MO_version value=""/>
		<cli_parameters>
			<blobs_as_inputs value="True"/>
			<caffe_parser_path value="DIR"/>
			<data_type value="float"/>
			<disable_nhwc_to_nchw value="False"/>
			<disable_omitting_optional value="False"/>
			<disable_resnet_optimization value="False"/>
			<disable_weights_compression value="False"/>
			<enable_concat_optimization value="False"/>
			<enable_flattening_nested_params value="False"/>
			<enable_ssd_gluoncv value="False"/>
			<extensions value="DIR"/>
			<framework value="onnx"/>
			<freeze_placeholder_with_value value="{}"/>
			<generate_deprecated_IR_V2 value="False"/>
			<generate_deprecated_IR_V7 value="False"/>
			<generate_experimental_IR_V10 value="True"/>
			<input_model value="DIR/yolov5s_2.0.onnx"/>
			<input_model_is_text value="False"/>
			<input_shape value="[1,3,640,640]"/>
			<k value="DIR/CustomLayersMapping.xml"/>
			<keep_quantize_ops_in_IR value="True"/>
			<keep_shape_ops value="False"/>
			<legacy_mxnet_model value="False"/>
			<log_level value="ERROR"/>
			<mean_scale_values value="{}"/>
			<mean_values value="()"/>
			<model_name value="yolov5s_2.0"/>
			<move_to_preprocess value="False"/>
			<output_dir value="DIR"/>
			<placeholder_data_types value="{}"/>
			<placeholder_shapes value="[  1   3 640 640]"/>
			<progress value="False"/>
			<remove_memory value="False"/>
			<remove_output_softmax value="False"/>
			<reverse_input_channels value="False"/>
			<save_params_from_nd value="False"/>
			<scale_values value="()"/>
			<silent value="False"/>
			<stream_output value="False"/>
			<unset unset_cli_parameters="batch, counts, disable_fusing, disable_gfusing, finegrain_fusing, input, input_checkpoint, input_meta_graph, input_proto, input_symbol, mean_file, mean_file_offsets, nd_prefix_name, output, pretrained_model_name, saved_model_dir, saved_model_tags, scale, tensorboard_logdir, tensorflow_custom_layer_libraries, tensorflow_custom_operations_config_update, tensorflow_object_detection_api_pipeline_config, tensorflow_use_custom_operations_config, transformations_config"/>
		</cli_parameters>
	</meta_data>
</net>
